node {
  name: "global_step"
  op: "Variable"
  attr {
    key: "_output_shapes"
    value {
      list {
        shape {
        }
      }
    }
  }
  attr {
    key: "container"
    value {
      s: ""
    }
  }
  attr {
    key: "dtype"
    value {
      type: DT_INT64
    }
  }
  attr {
    key: "shape"
    value {
      shape {
      }
    }
  }
  attr {
    key: "shared_name"
    value {
      s: ""
    }
  }
}
node {
  name: "global_step/Initializer/zeros"
  op: "Const"
  attr {
    key: "_class"
    value {
      list {
        s: "loc:@global_step"
      }
    }
  }
  attr {
    key: "_output_shapes"
    value {
      list {
        shape {
        }
      }
    }
  }
  attr {
    key: "dtype"
    value {
      type: DT_INT64
    }
  }
  attr {
    key: "value"
    value {
      tensor {
        dtype: DT_INT64
        tensor_shape {
        }
        int64_val: 0
      }
    }
  }
}
node {
  name: "global_step/Assign"
  op: "Assign"
  input: "global_step"
  input: "global_step/Initializer/zeros"
  attr {
    key: "T"
    value {
      type: DT_INT64
    }
  }
  attr {
    key: "_class"
    value {
      list {
        s: "loc:@global_step"
      }
    }
  }
  attr {
    key: "_output_shapes"
    value {
      list {
        shape {
        }
      }
    }
  }
  attr {
    key: "use_locking"
    value {
      b: true
    }
  }
  attr {
    key: "validate_shape"
    value {
      b: true
    }
  }
}
node {
  name: "global_step/read"
  op: "Identity"
  input: "global_step"
  attr {
    key: "T"
    value {
      type: DT_INT64
    }
  }
  attr {
    key: "_class"
    value {
      list {
        s: "loc:@global_step"
      }
    }
  }
  attr {
    key: "_output_shapes"
    value {
      list {
        shape {
        }
      }
    }
  }
}
node {
  name: "Const"
  op: "Const"
  attr {
    key: "_output_shapes"
    value {
      list {
        shape {
          dim {
            size: 3190
          }
        }
      }
    }
  }
  attr {
    key: "dtype"
    value {
      type: DT_FLOAT
    }
  }
  attr {
    key: "value"
    value {
      tensor {
        dtype: DT_FLOAT
        tensor_shape {
          dim {
            size: 3190
          }
        }
        tensor_content: "…"
      }
    }
  }
}
node {
  name: "Const_1"
  op: "Const"
  attr {
    key: "_output_shapes"
    value {
      list {
        shape {
          dim {
            size: 3190
          }
        }
      }
    }
  }
  attr {
    key: "dtype"
    value {
      type: DT_FLOAT
    }
  }
  attr {
    key: "value"
    value {
      tensor {
        dtype: DT_FLOAT
        tensor_shape {
          dim {
            size: 3190
          }
        }
        tensor_content: "…"
      }
    }
  }
}
node {
  name: "Const_2"
  op: "Const"
  attr {
    key: "_output_shapes"
    value {
      list {
        shape {
          dim {
            size: 3190
          }
        }
      }
    }
  }
  attr {
    key: "dtype"
    value {
      type: DT_FLOAT
    }
  }
  attr {
    key: "value"
    value {
      tensor {
        dtype: DT_FLOAT
        tensor_shape {
          dim {
            size: 3190
          }
        }
        tensor_content: "…"
      }
    }
  }
}
node {
  name: "SparseTensor/indices"
  op: "Const"
  attr {
    key: "_output_shapes"
    value {
      list {
        shape {
          dim {
            size: 3190
          }
          dim {
            size: 2
          }
        }
      }
    }
  }
  attr {
    key: "dtype"
    value {
      type: DT_INT64
    }
  }
  attr {
    key: "value"
    value {
      tensor {
        dtype: DT_INT64
        tensor_shape {
          dim {
            size: 3190
          }
          dim {
            size: 2
          }
        }
        tensor_content: "…"
      }
    }
  }
}
node {
  name: "SparseTensor/values"
  op: "Const"
  attr {
    key: "_output_shapes"
    value {
      list {
        shape {
          dim {
            size: 3190
          }
        }
      }
    }
  }
  attr {
    key: "dtype"
    value {
      type: DT_STRING
    }
  }
  attr {
    key: "value"
    value {
      tensor {
        dtype: DT_STRING
        tensor_shape {
          dim {
            size: 3190
          }
        }
        string_val: "95136"
        string_val: "94502"
        string_val: "94553"
        string_val: "94027"
        string_val: "94587"
        string_val: "94702"
        string_val: "94703"
        string_val: "94553"
        string_val: "95436"
        string_val: "95132"
        string_val: "95206"
        string_val: "95687"
        string_val: "95124"
        string_val: "95918"
        string_val: "94027"
        string_val: "95219"
        string_val: "95122"
        string_val: "95620"
        string_val: "95037"
        string_val: "95127"
        string_val: "95112"
        string_val: "95023"
        string_val: "95010"
        string_val: "94702"
        string_val: "95918"
        string_val: "94503"
        string_val: "95666"
        string_val: "94110"
        string_val: "94158"
        string_val: "94507"
        string_val: "94107"
        string_val: "94118"
        string_val: "95112"
        string_val: "94585"
        string_val: "94511"
        string_val: "94102"
        string_val: "95688"
        string_val: "94509"
        string_val: "95688"
        string_val: "95694"
        string_val: "95070"
        string_val: "94515"
        string_val: "95206"
        string_val: "95014"
        string_val: "94515"
        string_val: "95076"
        string_val: "95401"
        string_val: "95046"
        string_val: "95003"
        string_val: "95130"
        string_val: "95422"
        string_val: "95367"
        string_val: "94533"
        string_val: "95139"
        string_val: "94520"
        string_val: "94589"
        string_val: "94061"
        string_val: "95687"
        string_val: "95134"
        string_val: "95404"
        string_val: "94158"
        string_val: "94904"
        string_val: "94014"
        string_val: "94133"
        string_val: "94571"
        string_val: "95620"
        string_val: "94022"
        string_val: "95110"
        string_val: "94547"
        string_val: "94551"
        string_val: "93292"
        string_val: "95376"
        string_val: "95134"
        string_val: "94574"
        string_val: "95210"
        string_val: "94603"
        string_val: "94536"
        string_val: "94022"
        string_val: "95204"
        string_val: "94558"
        string_val: "93292"
        string_val: "95422"
        string_val: "94517"
        string_val: "94515"
        string_val: "94603"
        string_val: "94060"
        string_val: "95134"
        string_val: "94920"
        string_val: "94019"
        string_val: "94086"
        string_val: "94530"
        string_val: "89431"
        string_val: "94506"
        string_val: "94015"
        string_val: "95020"
        string_val: "95050"
        string_val: "94574"
        string_val: "95010"
        string_val: "95136"
        string_val: "94563"
        string_val: "95405"
        string_val: "94519"
        string_val: "95650"
        string_val: "95240"
        string_val: "94903"
        string_val: "94117"
        string_val: "95117"
        string_val: "95409"
        string_val: "95242"
        string_val: "94030"
        string_val: "94541"
        string_val: "94110"
        string_val: "94117"
        string_val: "95003"
        string_val: "94066"
        string_val: "95004"
        string_val: "94920"
        string_val: "95125"
        string_val: "94110"
        string_val: "94708"
        string_val: "94547"
        string_val: "94585"
        string_val: "95918"
        string_val: "94965"
        string_val: "95014"
        string_val: "95134"
        string_val: "95205"
        string_val: "95050"
        string_val: "94803"
        string_val: "95127"
        string_val: "94515"
        string_val: "94509"
        string_val: "94572"
        string_val: "95497"
        string_val: "95207"
        string_val: "95450"
        string_val: "94066"
        string_val: "95131"
        string_val: "94903"
        string_val: "21401"
        string_val: "95376"
        string_val: "94044"
        string_val: "95136"
        string_val: "94928"
        string_val: "95023"
        string_val: "94582"
        string_val: "94803"
        string_val: "94118"
        string_val: "95065"
        string_val: "94089"
        string_val: "95135"
        string_val: "94941"
        string_val: "94577"
        string_val: "95403"
        string_val: "95215"
        string_val: "94121"
        string_val: "94518"
        string_val: "94550"
        string_val: "93292"
        string_val: "95118"
        string_val: "94005"
        string_val: "94585"
        string_val: "95202"
        string_val: "94526"
        string_val: "95125"
        string_val: "94536"
        string_val: "95450"
        string_val: "94505"
        string_val: "95376"
        string_val: "94118"
        string_val: "94551"
        string_val: "94586"
        string_val: "94595"
        string_val: "95110"
        string_val: "95008"
        string_val: "94553"
        string_val: "94521"
        string_val: "94931"
        string_val: "94566"
        string_val: "93292"
        string_val: "95497"
        string_val: "94530"
        string_val: "95616"
        string_val: "94515"
        string_val: "94115"
        string_val: "95062"
        string_val: "94970"
        string_val: "94121"
        string_val: "94806"
        string_val: "94606"
        string_val: "97701"
        string_val: "94552"
        string_val: "94619"
        string_val: "94043"
        string_val: "95131"
        string_val: "95220"
        string_val: "94507"
        string_val: "94510"
        string_val: "94952"
        string_val: "95476"
        string_val: "94117"
        string_val: "95445"
        string_val: "95361"
        string_val: "94946"
        string_val: "94062"
        string_val: "95118"
        string_val: "95688"
        string_val: "94612"
        string_val: "95131"
        string_val: "94038"
        string_val: "94024"
        string_val: "95648"
        string_val: "94085"
        string_val: "95135"
        string_val: "94080"
        string_val: "94509"
        string_val: "95351"
        string_val: "94536"
        string_val: "94531"
        string_val: "95050"
        string_val: "95445"
        string_val: "94118"
        string_val: "94611"
        string_val: "94541"
        string_val: "94572"
        string_val: "94025"
        string_val: "94703"
        string_val: "95377"
        string_val: "95125"
        string_val: "94086"
        string_val: "46123"
        string_val: "94107"
        string_val: "95030"
        string_val: "95252"
        string_val: "95391"
        string_val: "94508"
        string_val: "94945"
        string_val: "94546"
        string_val: "94518"
        string_val: "94563"
        string_val: "95377"
        string_val: "95367"
        string_val: "95207"
        string_val: "95203"
        string_val: "95133"
        string_val: "94547"
        string_val: "95212"
        string_val: "95361"
        string_val: "94702"
        string_val: "94608"
        string_val: "94546"
        string_val: "95227"
        string_val: "95407"
        string_val: "93292"
        string_val: "95136"
        string_val: "95425"
        string_val: "21401"
        string_val: "95127"
        string_val: "95618"
        string_val: "95035"
        string_val: "94533"
        string_val: "94523"
        string_val: "95252"
        string_val: "94044"
        string_val: "95445"
        string_val: "94080"
        string_val: "94102"
        string_val: "94061"
        string_val: "94103"
        string_val: "94609"
        string_val: "94585"
        string_val: "94115"
        string_val: "95688"
        string_val: "94930"
        string_val: "94547"
        string_val: "94503"
        string_val: "94534"
        string_val: "95648"
        string_val: "94015"
        string_val: "94552"
        string_val: "95337"
        string_val: "95242"
        string_val: "95054"
        string_val: "95337"
        string_val: "94563"
        string_val: "94941"
        string_val: "95120"
        string_val: "95116"
        string_val: "95212"
        string_val: "95422"
        string_val: "95062"
        string_val: "94924"
        string_val: "94080"
        string_val: "94518"
        string_val: "94014"
        string_val: "95045"
        string_val: "94509"
        string_val: "95212"
        string_val: "95409"
        string_val: "94550"
        string_val: "94531"
        string_val: "95258"
        string_val: "94577"
        string_val: "94599"
        string_val: "94603"
        string_val: "94587"
        string_val: "94030"
        string_val: "95648"
        string_val: "94131"
        string_val: "94105"
        string_val: "95018"
        string_val: "95060"
        string_val: "94560"
        string_val: "95111"
        string_val: "94947"
        string_val: "94108"
        string_val: "95135"
        string_val: "95123"
        string_val: "95401"
        string_val: "95128"
        string_val: "94708"
        string_val: "94086"
        string_val: "95628"
        string_val: "95472"
        string_val: "94559"
        string_val: "94544"
        string_val: "94590"
        string_val: "94608"
        string_val: "94403"
        string_val: "94132"
        string_val: "94508"
        string_val: "94124"
        string_val: "95230"
        string_val: "95018"
        string_val: "95918"
        string_val: "94565"
        string_val: "94089"
        string_val: "94583"
        string_val: "95422"
        string_val: "95014"
        string_val: "94609"
        string_val: "95023"
        string_val: "95003"
        string_val: "95367"
        string_val: "94925"
        string_val: "95206"
        string_val: "94133"
        string_val: "95648"
        string_val: "89431"
        string_val: "95035"
        string_val: "94560"
        string_val: "94928"
        string_val: "94010"
        string_val: "95497"
        string_val: "94132"
        string_val: "95062"
        string_val: "95425"
        string_val: "94041"
        string_val: "94578"
        string_val: "94123"
        string_val: "95220"
        string_val: "94123"
        string_val: "94563"
        string_val: "95252"
        string_val: "95062"
        string_val: "95320"
        string_val: "94931"
        string_val: "94505"
        string_val: "94103"
        string_val: "95401"
        string_val: "94037"
        string_val: "94112"
        string_val: "95019"
        string_val: "95008"
        string_val: "94061"
        string_val: "95448"
        string_val: "95336"
        string_val: "89431"
        string_val: "94526"
        string_val: "94618"
        string_val: "95030"
        string_val: "94596"
        string_val: "94080"
        string_val: "94080"
        string_val: "94592"
        string_val: "94404"
        string_val: "95918"
        string_val: "94960"
        string_val: "95076"
        string_val: "94806"
        string_val: "95351"
        string_val: "95461"
        string_val: "94903"
        string_val: "95320"
        string_val: "94706"
        string_val: "94565"
        string_val: "95366"
        string_val: "95376"
        string_val: "89431"
        string_val: "94601"
        string_val: "95121"
        string_val: "94587"
        string_val: "95204"
        string_val: "94513"
        string_val: "94956"
        string_val: "94585"
        string_val: "95032"
        string_val: "94002"
        string_val: "94558"
        string_val: "94526"
        string_val: "95330"
        string_val: "94127"
        string_val: "94952"
        string_val: "95367"
        string_val: "94595"
        string_val: "94556"
        string_val: "94132"
        string_val: "95004"
        string_val: "94578"
        string_val: "95123"
        string_val: "95419"
        string_val: "94591"
        string_val: "95249"
        string_val: "94534"
        string_val: "95014"
        string_val: "94533"
        string_val: "95134"
        string_val: "94080"
        string_val: "94509"
        string_val: "95008"
        string_val: "95076"
        string_val: "94020"
        string_val: "95377"
        string_val: "95351"
        string_val: "94541"
        string_val: "94019"
        string_val: "94525"
        string_val: "95202"
        string_val: "94534"
        string_val: "95126"
        string_val: "94402"
        string_val: "94085"
        string_val: "95204"
        string_val: "94024"
        string_val: "94805"
        string_val: "94063"
        string_val: "94928"
        string_val: "95012"
        string_val: "94025"
        string_val: "94065"
        string_val: "94123"
        string_val: "94509"
        string_val: "94127"
        string_val: "95035"
        string_val: "94565"
        string_val: "95618"
        string_val: "94606"
        string_val: "95694"
        string_val: "95404"
        string_val: "94947"
        string_val: "94946"
        string_val: "94107"
        string_val: "94541"
        string_val: "94582"
        string_val: "94402"
        string_val: "95497"
        string_val: "94619"
        string_val: "95210"
        string_val: "94547"
        string_val: "94103"
        string_val: "95401"
        string_val: "94116"
        string_val: "94116"
        string_val: "94025"
        string_val: "95132"
        string_val: "94060"
        string_val: "94965"
        string_val: "94920"
        string_val: "94586"
        string_val: "95258"
        string_val: "95124"
        string_val: "94107"
        string_val: "95004"
        string_val: "95127"
        string_val: "95123"
        string_val: "94536"
        string_val: "94945"
        string_val: "94002"
        string_val: "94501"
        string_val: "95351"
        string_val: "94523"
        string_val: "95448"
        string_val: "94087"
        string_val: "94545"
        string_val: "94030"
        string_val: "46123"
        string_val: "94510"
        string_val: "94805"
        string_val: "95148"
        string_val: "94595"
        string_val: "94541"
        string_val: "95405"
        string_val: "94596"
        string_val: "95122"
        string_val: "94591"
        string_val: "94123"
        string_val: "94903"
        string_val: "94511"
        string_val: "94952"
        string_val: "95014"
        string_val: "95112"
        string_val: "94904"
        string_val: "94518"
        string_val: "94530"
        string_val: "94536"
        string_val: "94945"
        string_val: "94089"
        string_val: "94580"
        string_val: "94903"
        string_val: "95037"
        string_val: "94507"
        string_val: "94107"
        string_val: "94806"
        string_val: "94531"
        string_val: "94601"
        string_val: "95030"
        string_val: "95030"
        string_val: "95242"
        string_val: "95111"
        string_val: "94404"
        string_val: "95006"
        string_val: "94607"
        string_val: "94024"
        string_val: "94505"
        string_val: "95065"
        string_val: "95124"
        string_val: "95421"
        string_val: "94025"
        string_val: "94558"
        string_val: "95066"
        string_val: "94542"
        string_val: "94587"
        string_val: "94301"
        string_val: "94544"
        string_val: "95030"
        string_val: "95366"
        string_val: "94070"
        string_val: "95125"
        string_val: "21401"
        string_val: "94612"
        string_val: "94063"
        string_val: "94928"
        string_val: "93292"
        string_val: "94536"
        string_val: "94118"
        string_val: "94801"
        string_val: "95010"
        string_val: "94544"
        string_val: "95112"
        string_val: "94506"
        string_val: "95918"
        string_val: "95448"
        string_val: "95023"
        string_val: "95005"
        string_val: "94102"
        string_val: "95409"
        string_val: "94607"
        string_val: "94947"
        string_val: "94611"
        string_val: "95066"
        string_val: "94112"
        string_val: "94903"
        string_val: "93292"
        string_val: "95045"
        string_val: "94952"
        string_val: "94133"
        string_val: "94611"
        string_val: "94550"
        string_val: "94707"
        string_val: "95117"
        string_val: "94925"
        string_val: "95441"
        string_val: "95351"
        string_val: "94103"
        string_val: "95252"
        string_val: "94590"
        string_val: "95628"
        string_val: "94086"
        string_val: "95206"
        string_val: "94549"
        string_val: "94306"
        string_val: "95210"
        string_val: "95118"
        string_val: "94002"
        string_val: "94571"
        string_val: "90266"
        string_val: "95450"
        string_val: "94538"
        string_val: "95227"
        string_val: "95403"
        string_val: "94102"
        string_val: "95616"
        string_val: "94103"
        string_val: "94546"
        string_val: "94542"
        string_val: "94115"
        string_val: "95050"
        string_val: "94060"
        string_val: "95351"
        string_val: "94619"
        string_val: "94589"
        string_val: "95122"
        string_val: "94928"
        string_val: "94519"
        string_val: "94111"
        string_val: "94121"
        string_val: "94022"
        string_val: "95409"
        string_val: "95125"
        string_val: "94025"
        string_val: "95219"
        string_val: "94105"
        string_val: "90266"
        string_val: "95129"
        string_val: "95497"
        string_val: "89431"
        string_val: "94566"
        string_val: "95131"
        string_val: "95616"
        string_val: "94965"
        string_val: "94024"
        string_val: "94903"
        string_val: "97701"
        string_val: "95121"
        string_val: "94590"
        string_val: "94595"
        string_val: "94519"
        string_val: "94080"
        string_val: "94547"
        string_val: "95361"
        string_val: "94945"
        string_val: "95110"
        string_val: "95330"
        string_val: "95054"
        string_val: "94536"
        string_val: "94904"
        string_val: "94112"
        string_val: "94595"
        string_val: "95409"
        string_val: "94538"
        string_val: "90266"
        string_val: "95620"
        string_val: "95037"
        string_val: "95037"
        string_val: "94580"
        string_val: "95465"
        string_val: "95367"
        string_val: "94002"
        string_val: "95202"
        string_val: "94903"
        string_val: "95134"
        string_val: "95014"
        string_val: "94080"
        string_val: "95361"
        string_val: "95407"
        string_val: "94123"
        string_val: "95132"
        string_val: "94951"
        string_val: "94528"
        string_val: "95220"
        string_val: "94531"
        string_val: "94565"
        string_val: "94534"
        string_val: "94066"
        string_val: "94110"
        string_val: "94510"
        string_val: "94123"
        string_val: "94080"
        string_val: "95403"
        string_val: "94127"
        string_val: "95618"
        string_val: "95131"
        string_val: "95126"
        string_val: "94402"
        string_val: "94306"
        string_val: "94062"
        string_val: "94087"
        string_val: "94066"
        string_val: "94024"
        string_val: "94109"
        string_val: "94541"
        string_val: "95258"
        string_val: "94555"
        string_val: "94598"
        string_val: "95117"
        string_val: "95366"
        string_val: "95405"
        string_val: "94505"
        string_val: "94610"
        string_val: "95045"
        string_val: "95616"
        string_val: "95051"
        string_val: "95220"
        string_val: "94574"
        string_val: "95135"
        string_val: "94610"
        string_val: "94015"
        string_val: "95116"
        string_val: "89431"
        string_val: "95476"
        string_val: "94702"
        string_val: "94920"
        string_val: "95351"
        string_val: "94015"
        string_val: "94972"
        string_val: "94957"
        string_val: "94580"
        string_val: "95462"
        string_val: "95020"
        string_val: "94539"
        string_val: "94401"
        string_val: "89431"
        string_val: "95422"
        string_val: "95112"
        string_val: "94544"
        string_val: "94111"
        string_val: "93292"
        string_val: "94577"
        string_val: "95476"
        string_val: "94947"
        string_val: "94923"
        string_val: "94598"
        string_val: "95618"
        string_val: "95126"
        string_val: "94970"
        string_val: "94301"
        string_val: "95043"
        string_val: "94109"
        string_val: "94571"
        string_val: "94401"
        string_val: "46123"
        string_val: "94010"
        string_val: "94590"
        string_val: "94123"
        string_val: "95032"
        string_val: "95366"
        string_val: "94518"
        string_val: "94558"
        string_val: "95127"
        string_val: "94519"
        string_val: "95002"
        string_val: "94952"
        string_val: "95376"
        string_val: "94605"
        string_val: "94511"
        string_val: "95065"
        string_val: "94550"
        string_val: "94579"
        string_val: "95023"
        string_val: "94021"
        string_val: "94107"
        string_val: "95618"
        string_val: "94109"
        string_val: "94577"
        string_val: "94608"
        string_val: "94702"
        string_val: "95204"
        string_val: "95046"
        string_val: "95367"
        string_val: "94605"
        string_val: "94578"
        string_val: "94559"
        string_val: "95337"
        string_val: "94608"
        string_val: "21401"
        string_val: "93501"
        string_val: "94022"
        string_val: "94563"
        string_val: "94506"
        string_val: "94508"
        string_val: "90266"
        string_val: "95240"
        string_val: "95209"
        string_val: "94538"
        string_val: "94027"
        string_val: "95062"
        string_val: "95825"
        string_val: "94025"
        string_val: "95240"
        string_val: "94402"
        string_val: "94089"
        string_val: "94558"
        string_val: "95405"
        string_val: "94401"
        string_val: "95005"
        string_val: "95136"
        string_val: "95376"
        string_val: "94565"
        string_val: "94583"
        string_val: "95688"
        string_val: "95060"
        string_val: "95035"
        string_val: "95127"
        string_val: "95240"
        string_val: "94903"
        string_val: "95409"
        string_val: "94010"
        string_val: "94108"
        string_val: "95066"
        string_val: "94401"
        string_val: "95628"
        string_val: "94804"
        string_val: "95111"
        string_val: "94024"
        string_val: "94579"
        string_val: "93292"
        string_val: "94118"
        string_val: "94121"
        string_val: "94608"
        string_val: "94108"
        string_val: "94080"
        string_val: "94015"
        string_val: "94507"
        string_val: "94038"
        string_val: "94559"
        string_val: "94945"
        string_val: "94595"
        string_val: "94041"
        string_val: "95422"
        string_val: "95448"
        string_val: "95330"
        string_val: "94103"
        string_val: "95825"
        string_val: "95111"
        string_val: "95240"
        string_val: "94108"
        string_val: "94030"
        string_val: "95131"
        string_val: "94806"
        string_val: "94118"
        string_val: "94402"
        string_val: "93292"
        string_val: "95628"
        string_val: "95376"
        string_val: "94515"
        string_val: "94107"
        string_val: "94589"
        string_val: "94102"
        string_val: "94706"
        string_val: "94070"
        string_val: "95125"
        string_val: "95023"
        string_val: "95690"
        string_val: "89431"
        string_val: "94804"
        string_val: "95120"
        string_val: "94803"
        string_val: "95051"
        string_val: "95112"
        string_val: "94603"
        string_val: "94038"
        string_val: "94599"
        string_val: "94571"
        string_val: "94112"
        string_val: "94534"
        string_val: "94599"
        string_val: "94533"
        string_val: "94105"
        string_val: "94102"
        string_val: "95128"
        string_val: "95219"
        string_val: "95116"
        string_val: "95409"
        string_val: "95123"
        string_val: "95010"
        string_val: "94925"
        string_val: "94038"
        string_val: "95336"
        string_val: "95403"
        string_val: "94060"
        string_val: "94583"
        string_val: "95204"
        string_val: "95010"
        string_val: "94303"
        string_val: "94801"
        string_val: "95060"
        string_val: "93292"
        string_val: "95132"
        string_val: "94118"
        string_val: "94110"
        string_val: "89431"
        string_val: "97701"
        string_val: "95648"
        string_val: "95376"
        string_val: "94517"
        string_val: "94103"
        string_val: "94544"
        string_val: "94552"
        string_val: "94928"
        string_val: "94044"
        string_val: "94601"
        string_val: "95361"
        string_val: "94957"
        string_val: "94086"
        string_val: "94805"
        string_val: "95448"
        string_val: "94565"
        string_val: "94109"
        string_val: "94589"
        string_val: "95461"
        string_val: "94502"
        string_val: "95254"
        string_val: "95330"
        string_val: "94063"
        string_val: "95035"
        string_val: "94102"
        string_val: "94080"
        string_val: "95045"
        string_val: "94965"
        string_val: "94080"
        string_val: "94115"
        string_val: "94558"
        string_val: "94574"
        string_val: "94102"
        string_val: "95690"
        string_val: "94949"
        string_val: "94403"
        string_val: "95050"
        string_val: "95130"
        string_val: "95014"
        string_val: "95391"
        string_val: "94611"
        string_val: "94402"
        string_val: "94937"
        string_val: "95442"
        string_val: "94608"
        string_val: "95650"
        string_val: "21401"
        string_val: "94549"
        string_val: "94087"
        string_val: "94559"
        string_val: "94707"
        string_val: "94110"
        string_val: "95650"
        string_val: "95131"
        string_val: "94530"
        string_val: "94608"
        string_val: "94920"
        string_val: "95008"
        string_val: "95121"
        string_val: "94924"
        string_val: "95377"
        string_val: "94609"
        string_val: "94080"
        string_val: "95032"
        string_val: "95361"
        string_val: "94541"
        string_val: "94517"
        string_val: "95476"
        string_val: "93501"
        string_val: "94507"
        string_val: "94513"
        string_val: "94578"
        string_val: "94947"
        string_val: "94010"
        string_val: "94520"
        string_val: "94109"
        string_val: "95403"
        string_val: "95126"
        string_val: "95206"
        string_val: "94545"
        string_val: "94086"
        string_val: "95070"
        string_val: "95202"
        string_val: "94708"
        string_val: "95448"
        string_val: "95122"
        string_val: "94518"
        string_val: "95125"
        string_val: "94957"
        string_val: "94949"
        string_val: "94567"
        string_val: "94920"
        string_val: "95476"
        string_val: "95037"
        string_val: "95148"
        string_val: "94941"
        string_val: "95231"
        string_val: "95409"
        string_val: "95442"
        string_val: "95066"
        string_val: "94404"
        string_val: "94952"
        string_val: "94574"
        string_val: "95361"
        string_val: "94945"
        string_val: "95066"
        string_val: "94533"
        string_val: "94024"
        string_val: "94806"
        string_val: "94510"
        string_val: "95118"
        string_val: "94107"
        string_val: "95666"
        string_val: "94965"
        string_val: "95825"
        string_val: "94937"
        string_val: "94928"
        string_val: "95476"
        string_val: "95123"
        string_val: "95120"
        string_val: "94306"
        string_val: "95128"
        string_val: "89431"
        string_val: "94027"
        string_val: "95336"
        string_val: "93292"
        string_val: "94531"
        string_val: "95070"
        string_val: "94118"
        string_val: "95135"
        string_val: "94131"
        string_val: "94030"
        string_val: "94103"
        string_val: "95204"
        string_val: "94043"
        string_val: "94708"
        string_val: "95436"
        string_val: "94611"
        string_val: "95111"
        string_val: "94111"
        string_val: "95065"
        string_val: "94703"
        string_val: "94508"
        string_val: "94920"
        string_val: "94131"
        string_val: "95242"
        string_val: "95422"
        string_val: "95206"
        string_val: "95450"
        string_val: "95129"
        string_val: "94599"
        string_val: "95032"
        string_val: "95252"
        string_val: "94579"
        string_val: "94110"
        string_val: "95112"
        string_val: "94111"
        string_val: "94706"
        string_val: "94115"
        string_val: "94960"
        string_val: "94025"
        string_val: "94579"
        string_val: "94558"
        string_val: "94070"
        string_val: "94607"
        string_val: "95205"
        string_val: "94510"
        string_val: "94904"
        string_val: "94550"
        string_val: "94574"
        string_val: "95628"
        string_val: "94015"
        string_val: "95005"
        string_val: "94030"
        string_val: "95258"
        string_val: "94706"
        string_val: "94567"
        string_val: "95128"
        string_val: "94121"
        string_val: "95116"
        string_val: "94555"
        string_val: "94028"
        string_val: "94560"
        string_val: "94577"
        string_val: "94531"
        string_val: "95014"
        string_val: "94103"
        string_val: "95148"
        string_val: "94303"
        string_val: "95404"
        string_val: "95204"
        string_val: "94080"
        string_val: "94804"
        string_val: "95304"
        string_val: "94010"
        string_val: "94402"
        string_val: "94015"
        string_val: "94567"
        string_val: "94521"
        string_val: "95825"
        string_val: "94107"
        string_val: "94534"
        string_val: "94553"
        string_val: "94619"
        string_val: "94530"
        string_val: "94960"
        string_val: "94607"
        string_val: "95425"
        string_val: "95337"
        string_val: "94804"
        string_val: "94117"
        string_val: "95116"
        string_val: "94080"
        string_val: "95210"
        string_val: "95377"
        string_val: "95111"
        string_val: "94124"
        string_val: "94618"
        string_val: "95366"
        string_val: "94509"
        string_val: "95687"
        string_val: "95035"
        string_val: "94549"
        string_val: "94589"
        string_val: "97701"
        string_val: "94605"
        string_val: "94547"
        string_val: "94806"
        string_val: "94589"
        string_val: "94131"
        string_val: "95401"
        string_val: "94517"
        string_val: "95209"
        string_val: "94806"
        string_val: "94930"
        string_val: "94060"
        string_val: "95020"
        string_val: "95112"
        string_val: "94531"
        string_val: "94510"
        string_val: "94105"
        string_val: "95391"
        string_val: "95132"
        string_val: "94565"
        string_val: "94923"
        string_val: "94541"
        string_val: "95361"
        string_val: "94402"
        string_val: "94024"
        string_val: "94103"
        string_val: "94619"
        string_val: "95023"
        string_val: "95076"
        string_val: "94621"
        string_val: "95304"
        string_val: "95376"
        string_val: "94952"
        string_val: "95111"
        string_val: "94507"
        string_val: "95628"
        string_val: "94608"
        string_val: "94937"
        string_val: "94070"
        string_val: "94070"
        string_val: "95240"
        string_val: "94102"
        string_val: "94590"
        string_val: "94580"
        string_val: "95209"
        string_val: "94402"
        string_val: "94954"
        string_val: "89431"
        string_val: "94117"
        string_val: "94065"
        string_val: "94507"
        string_val: "95206"
        string_val: "95127"
        string_val: "95240"
        string_val: "94080"
        string_val: "94555"
        string_val: "95010"
        string_val: "94559"
        string_val: "94403"
        string_val: "94946"
        string_val: "95497"
        string_val: "94801"
        string_val: "94928"
        string_val: "94553"
        string_val: "94505"
        string_val: "94066"
        string_val: "94508"
        string_val: "95403"
        string_val: "94404"
        string_val: "95219"
        string_val: "94551"
        string_val: "95127"
        string_val: "95111"
        string_val: "95135"
        string_val: "95030"
        string_val: "95215"
        string_val: "95465"
        string_val: "95118"
        string_val: "94080"
        string_val: "95242"
        string_val: "95476"
        string_val: "94515"
        string_val: "94061"
        string_val: "94550"
        string_val: "95023"
        string_val: "95690"
        string_val: "95125"
        string_val: "94903"
        string_val: "94605"
        string_val: "94404"
        string_val: "94109"
        string_val: "94703"
        string_val: "95135"
        string_val: "94574"
        string_val: "94531"
        string_val: "94805"
        string_val: "95111"
        string_val: "95212"
        string_val: "95125"
        string_val: "95236"
        string_val: "95240"
        string_val: "95139"
        string_val: "94515"
        string_val: "94585"
        string_val: "95120"
        string_val: "95391"
        string_val: "95409"
        string_val: "94503"
        string_val: "95628"
        string_val: "95648"
        string_val: "94158"
        string_val: "95206"
        string_val: "94901"
        string_val: "94510"
        string_val: "94552"
        string_val: "95616"
        string_val: "95304"
        string_val: "95240"
        string_val: "95209"
        string_val: "95405"
        string_val: "94546"
        string_val: "94530"
        string_val: "94070"
        string_val: "95050"
        string_val: "95023"
        string_val: "94301"
        string_val: "94028"
        string_val: "94526"
        string_val: "95337"
        string_val: "95005"
        string_val: "95632"
        string_val: "95401"
        string_val: "93292"
        string_val: "94590"
        string_val: "95110"
        string_val: "94530"
        string_val: "94598"
        string_val: "94572"
        string_val: "95051"
        string_val: "94946"
        string_val: "94062"
        string_val: "94533"
        string_val: "94107"
        string_val: "94121"
        string_val: "94965"
        string_val: "95008"
        string_val: "97701"
        string_val: "94595"
        string_val: "95111"
        string_val: "94080"
        string_val: "94301"
        string_val: "94949"
        string_val: "94022"
        string_val: "94571"
        string_val: "95361"
        string_val: "94020"
        string_val: "93292"
        string_val: "95122"
        string_val: "94923"
        string_val: "95436"
        string_val: "95650"
        string_val: "94041"
        string_val: "95407"
        string_val: "95076"
        string_val: "94565"
        string_val: "95126"
        string_val: "94560"
        string_val: "94903"
        string_val: "94621"
        string_val: "93292"
        string_val: "94531"
        string_val: "95116"
        string_val: "95123"
        string_val: "95230"
        string_val: "95304"
        string_val: "95240"
        string_val: "95124"
        string_val: "94536"
        string_val: "94577"
        string_val: "94105"
        string_val: "95133"
        string_val: "94591"
        string_val: "94301"
        string_val: "95497"
        string_val: "95122"
        string_val: "94116"
        string_val: "94402"
        string_val: "95005"
        string_val: "94901"
        string_val: "95330"
        string_val: "95132"
        string_val: "95442"
        string_val: "95124"
        string_val: "94706"
        string_val: "94621"
        string_val: "94105"
        string_val: "94015"
        string_val: "94542"
        string_val: "94595"
        string_val: "95120"
        string_val: "94608"
        string_val: "95129"
        string_val: "95694"
        string_val: "94590"
        string_val: "95113"
        string_val: "95207"
        string_val: "95476"
        string_val: "94610"
        string_val: "95125"
        string_val: "95054"
        string_val: "95448"
        string_val: "94015"
        string_val: "95120"
        string_val: "94903"
        string_val: "94519"
        string_val: "94587"
        string_val: "93292"
        string_val: "94116"
        string_val: "94544"
        string_val: "94102"
        string_val: "94901"
        string_val: "95472"
        string_val: "95650"
        string_val: "95060"
        string_val: "94531"
        string_val: "94134"
        string_val: "94131"
        string_val: "94553"
        string_val: "94132"
        string_val: "95133"
        string_val: "94928"
        string_val: "94582"
        string_val: "95252"
        string_val: "94621"
        string_val: "94402"
        string_val: "95202"
        string_val: "94574"
        string_val: "94118"
        string_val: "95694"
        string_val: "94040"
        string_val: "94550"
        string_val: "95497"
        string_val: "90266"
        string_val: "94501"
        string_val: "95442"
        string_val: "94040"
        string_val: "89431"
        string_val: "95116"
        string_val: "94301"
        string_val: "94508"
        string_val: "95240"
        string_val: "95366"
        string_val: "95003"
        string_val: "94509"
        string_val: "94585"
        string_val: "95366"
        string_val: "95445"
        string_val: "94544"
        string_val: "95006"
        string_val: "95010"
        string_val: "94134"
        string_val: "95122"
        string_val: "94505"
        string_val: "94553"
        string_val: "95404"
        string_val: "94531"
        string_val: "94602"
        string_val: "94952"
        string_val: "94621"
        string_val: "94923"
        string_val: "94611"
        string_val: "95148"
        string_val: "95037"
        string_val: "95035"
        string_val: "94903"
        string_val: "95441"
        string_val: "97701"
        string_val: "95014"
        string_val: "94528"
        string_val: "94513"
        string_val: "94595"
        string_val: "94589"
        string_val: "95127"
        string_val: "94010"
        string_val: "94027"
        string_val: "95070"
        string_val: "94131"
        string_val: "94904"
        string_val: "95219"
        string_val: "95113"
        string_val: "95008"
        string_val: "95051"
        string_val: "94607"
        string_val: "95023"
        string_val: "95207"
        string_val: "95366"
        string_val: "95694"
        string_val: "94127"
        string_val: "94952"
        string_val: "94904"
        string_val: "95918"
        string_val: "94133"
        string_val: "95330"
        string_val: "94599"
        string_val: "95445"
        string_val: "94596"
        string_val: "94526"
        string_val: "94124"
        string_val: "94103"
        string_val: "94544"
        string_val: "94303"
        string_val: "95409"
        string_val: "94303"
        string_val: "94920"
        string_val: "95054"
        string_val: "94501"
        string_val: "95005"
        string_val: "95008"
        string_val: "94563"
        string_val: "94027"
        string_val: "94519"
        string_val: "94066"
        string_val: "95030"
        string_val: "95076"
        string_val: "94401"
        string_val: "94062"
        string_val: "94403"
        string_val: "89431"
        string_val: "95004"
        string_val: "94523"
        string_val: "94947"
        string_val: "94547"
        string_val: "94509"
        string_val: "94061"
        string_val: "95066"
        string_val: "95648"
        string_val: "95421"
        string_val: "94070"
        string_val: "94525"
        string_val: "94121"
        string_val: "89431"
        string_val: "94020"
        string_val: "94611"
        string_val: "94544"
        string_val: "95422"
        string_val: "94086"
        string_val: "95209"
        string_val: "95062"
        string_val: "93292"
        string_val: "94587"
        string_val: "94019"
        string_val: "95694"
        string_val: "95128"
        string_val: "95117"
        string_val: "94518"
        string_val: "95035"
        string_val: "95376"
        string_val: "94089"
        string_val: "94531"
        string_val: "95425"
        string_val: "94971"
        string_val: "94510"
        string_val: "95032"
        string_val: "95688"
        string_val: "95472"
        string_val: "94533"
        string_val: "94583"
        string_val: "94080"
        string_val: "95403"
        string_val: "94509"
        string_val: "94579"
        string_val: "94109"
        string_val: "94587"
        string_val: "94158"
        string_val: "94102"
        string_val: "94533"
        string_val: "95032"
        string_val: "94022"
        string_val: "95220"
        string_val: "95116"
        string_val: "95051"
        string_val: "95476"
        string_val: "94534"
        string_val: "94526"
        string_val: "95062"
        string_val: "94612"
        string_val: "94521"
        string_val: "95139"
        string_val: "95065"
        string_val: "94577"
        string_val: "95076"
        string_val: "94901"
        string_val: "95118"
        string_val: "94536"
        string_val: "94118"
        string_val: "95062"
        string_val: "94571"
        string_val: "95037"
        string_val: "94566"
        string_val: "95336"
        string_val: "94105"
        string_val: "95070"
        string_val: "95231"
        string_val: "94102"
        string_val: "94015"
        string_val: "94602"
        string_val: "94928"
        string_val: "90266"
        string_val: "94544"
        string_val: "95407"
        string_val: "94530"
        string_val: "95330"
        string_val: "94301"
        string_val: "95116"
        string_val: "94115"
        string_val: "94595"
        string_val: "94402"
        string_val: "94563"
        string_val: "94123"
        string_val: "95422"
        string_val: "95209"
        string_val: "94521"
        string_val: "94550"
        string_val: "94960"
        string_val: "94536"
        string_val: "94061"
        string_val: "94579"
        string_val: "95628"
        string_val: "97701"
        string_val: "95445"
        string_val: "95330"
        string_val: "94080"
        string_val: "95126"
        string_val: "94087"
        string_val: "94518"
        string_val: "95472"
        string_val: "94122"
        string_val: "94506"
        string_val: "94515"
        string_val: "94105"
        string_val: "95215"
        string_val: "94028"
        string_val: "95404"
        string_val: "94118"
        string_val: "94553"
        string_val: "94611"
        string_val: "95123"
        string_val: "21401"
        string_val: "94924"
        string_val: "95204"
        string_val: "94806"
        string_val: "95220"
        string_val: "95054"
        string_val: "94403"
        string_val: "94612"
        string_val: "94117"
        string_val: "95452"
        string_val: "94555"
        string_val: "95117"
        string_val: "94904"
        string_val: "94122"
        string_val: "94121"
        string_val: "95128"
        string_val: "94925"
        string_val: "94542"
        string_val: "95450"
        string_val: "94080"
        string_val: "94544"
        string_val: "95062"
        string_val: "95687"
        string_val: "95003"
        string_val: "95361"
        string_val: "95404"
        string_val: "94109"
        string_val: "94803"
        string_val: "94024"
        string_val: "95421"
        string_val: "93292"
        string_val: "94545"
        string_val: "94606"
        string_val: "94127"
        string_val: "95131"
        string_val: "94579"
        string_val: "95616"
        string_val: "95139"
        string_val: "95037"
        string_val: "94061"
        string_val: "94705"
        string_val: "94551"
        string_val: "94546"
        string_val: "94965"
        string_val: "94591"
        string_val: "95320"
        string_val: "94583"
        string_val: "94503"
        string_val: "95666"
        string_val: "94123"
        string_val: "94555"
        string_val: "94545"
        string_val: "94903"
        string_val: "94970"
        string_val: "94928"
        string_val: "95497"
        string_val: "94404"
        string_val: "95121"
        string_val: "95018"
        string_val: "95404"
        string_val: "94089"
        string_val: "95002"
        string_val: "94507"
        string_val: "95136"
        string_val: "95012"
        string_val: "94587"
        string_val: "95436"
        string_val: "94062"
        string_val: "94941"
        string_val: "95065"
        string_val: "94123"
        string_val: "94595"
        string_val: "94515"
        string_val: "94509"
        string_val: "95148"
        string_val: "94582"
        string_val: "94061"
        string_val: "95694"
        string_val: "94611"
        string_val: "94937"
        string_val: "94606"
        string_val: "94533"
        string_val: "94536"
        string_val: "95122"
        string_val: "94903"
        string_val: "95361"
        string_val: "94103"
        string_val: "94920"
        string_val: "95116"
        string_val: "94952"
        string_val: "95425"
        string_val: "94131"
        string_val: "95336"
        string_val: "94801"
        string_val: "94551"
        string_val: "94801"
        string_val: "94587"
        string_val: "95066"
        string_val: "95231"
        string_val: "94024"
        string_val: "95403"
        string_val: "95110"
        string_val: "95112"
        string_val: "94063"
        string_val: "94027"
        string_val: "95020"
        string_val: "94539"
        string_val: "95404"
        string_val: "95123"
        string_val: "95240"
        string_val: "94123"
        string_val: "94089"
        string_val: "95616"
        string_val: "97701"
        string_val: "95436"
        string_val: "95010"
        string_val: "95062"
        string_val: "94566"
        string_val: "94080"
        string_val: "94025"
        string_val: "94705"
        string_val: "94803"
        string_val: "95020"
        string_val: "94587"
        string_val: "94028"
        string_val: "94903"
        string_val: "94131"
        string_val: "95118"
        string_val: "95004"
        string_val: "95112"
        string_val: "89431"
        string_val: "94549"
        string_val: "94550"
        string_val: "95010"
        string_val: "95336"
        string_val: "95258"
        string_val: "95202"
        string_val: "94531"
        string_val: "94705"
        string_val: "94970"
        string_val: "94065"
        string_val: "95421"
        string_val: "95070"
        string_val: "95825"
        string_val: "94105"
        string_val: "94939"
        string_val: "94306"
        string_val: "94931"
        string_val: "95128"
        string_val: "94952"
        string_val: "95686"
        string_val: "95203"
        string_val: "94089"
        string_val: "95210"
        string_val: "95112"
        string_val: "94806"
        string_val: "94941"
        string_val: "94566"
        string_val: "95461"
        string_val: "94577"
        string_val: "94596"
        string_val: "94028"
        string_val: "94015"
        string_val: "94102"
        string_val: "94536"
        string_val: "95121"
        string_val: "94595"
        string_val: "95361"
        string_val: "95111"
        string_val: "94566"
        string_val: "95202"
        string_val: "95134"
        string_val: "95045"
        string_val: "94103"
        string_val: "94102"
        string_val: "94062"
        string_val: "94060"
        string_val: "95825"
        string_val: "94107"
        string_val: "94122"
        string_val: "95212"
        string_val: "95050"
        string_val: "95123"
        string_val: "94063"
        string_val: "95220"
        string_val: "94803"
        string_val: "90266"
        string_val: "95132"
        string_val: "94517"
        string_val: "94063"
        string_val: "94928"
        string_val: "94553"
        string_val: "94603"
        string_val: "94063"
        string_val: "94609"
        string_val: "94602"
        string_val: "95010"
        string_val: "94536"
        string_val: "94804"
        string_val: "94040"
        string_val: "95070"
        string_val: "89431"
        string_val: "95132"
        string_val: "94089"
        string_val: "95070"
        string_val: "95472"
        string_val: "94566"
        string_val: "95616"
        string_val: "94102"
        string_val: "90266"
        string_val: "94923"
        string_val: "95336"
        string_val: "95618"
        string_val: "95376"
        string_val: "95436"
        string_val: "94920"
        string_val: "94571"
        string_val: "94929"
        string_val: "95240"
        string_val: "94605"
        string_val: "95472"
        string_val: "95648"
        string_val: "94544"
        string_val: "95690"
        string_val: "95127"
        string_val: "95690"
        string_val: "94118"
        string_val: "94601"
        string_val: "94582"
        string_val: "95203"
        string_val: "95377"
        string_val: "95010"
        string_val: "89431"
        string_val: "95687"
        string_val: "95422"
        string_val: "94945"
        string_val: "95210"
        string_val: "94611"
        string_val: "94549"
        string_val: "95135"
        string_val: "94118"
        string_val: "94123"
        string_val: "94014"
        string_val: "94087"
        string_val: "94306"
        string_val: "95632"
        string_val: "94577"
        string_val: "94063"
        string_val: "95018"
        string_val: "94506"
        string_val: "94010"
        string_val: "94923"
        string_val: "95240"
        string_val: "95037"
        string_val: "95409"
        string_val: "95110"
        string_val: "94403"
        string_val: "94610"
        string_val: "94121"
        string_val: "95409"
        string_val: "94044"
        string_val: "95123"
        string_val: "94558"
        string_val: "95130"
        string_val: "90266"
        string_val: "95118"
        string_val: "95120"
        string_val: "94541"
        string_val: "94923"
        string_val: "94601"
        string_val: "95337"
        string_val: "94547"
        string_val: "95377"
        string_val: "94110"
        string_val: "93292"
        string_val: "94946"
        string_val: "94062"
        string_val: "95252"
        string_val: "95125"
        string_val: "94952"
        string_val: "95236"
        string_val: "95207"
        string_val: "94903"
        string_val: "95918"
        string_val: "94559"
        string_val: "94555"
        string_val: "94928"
        string_val: "94930"
        string_val: "95237"
        string_val: "95401"
        string_val: "95465"
        string_val: "95694"
        string_val: "94563"
        string_val: "94005"
        string_val: "94574"
        string_val: "95336"
        string_val: "95132"
        string_val: "95215"
        string_val: "95122"
        string_val: "95361"
        string_val: "95119"
        string_val: "94931"
        string_val: "94590"
        string_val: "94037"
        string_val: "94041"
        string_val: "94577"
        string_val: "94965"
        string_val: "94534"
        string_val: "95320"
        string_val: "95405"
        string_val: "95304"
        string_val: "95112"
        string_val: "94063"
        string_val: "95366"
        string_val: "94515"
        string_val: "94526"
        string_val: "95062"
        string_val: "95203"
        string_val: "94530"
        string_val: "94806"
        string_val: "95134"
        string_val: "94043"
        string_val: "95465"
        string_val: "95694"
        string_val: "95134"
        string_val: "94123"
        string_val: "94601"
        string_val: "94595"
        string_val: "95116"
        string_val: "94133"
        string_val: "94515"
        string_val: "94619"
        string_val: "94547"
        string_val: "94507"
        string_val: "90266"
        string_val: "95006"
        string_val: "95442"
        string_val: "94015"
        string_val: "94571"
        string_val: "94608"
        string_val: "94402"
        string_val: "94402"
        string_val: "94037"
        string_val: "95117"
        string_val: "95033"
        string_val: "94015"
        string_val: "94903"
        string_val: "94578"
        string_val: "94596"
        string_val: "94585"
        string_val: "94544"
        string_val: "94019"
        string_val: "94618"
        string_val: "94015"
        string_val: "94574"
        string_val: "95694"
        string_val: "95403"
        string_val: "94044"
        string_val: "95117"
        string_val: "94621"
        string_val: "95367"
        string_val: "95337"
        string_val: "95076"
        string_val: "94903"
        string_val: "94939"
        string_val: "95037"
        string_val: "94070"
        string_val: "94805"
        string_val: "94505"
        string_val: "94970"
        string_val: "95060"
        string_val: "94002"
        string_val: "94611"
        string_val: "94518"
        string_val: "46123"
        string_val: "94105"
        string_val: "94109"
        string_val: "94511"
        string_val: "95010"
        string_val: "95051"
        string_val: "95070"
        string_val: "21401"
        string_val: "94509"
        string_val: "95054"
        string_val: "94612"
        string_val: "94028"
        string_val: "94509"
        string_val: "95450"
        string_val: "95403"
        string_val: "94939"
        string_val: "89431"
        string_val: "95010"
        string_val: "95123"
        string_val: "95472"
        string_val: "95301"
        string_val: "95132"
        string_val: "94586"
        string_val: "95131"
        string_val: "95632"
        string_val: "95003"
        string_val: "95125"
        string_val: "95220"
        string_val: "95129"
        string_val: "94970"
        string_val: "94306"
        string_val: "95202"
        string_val: "95004"
        string_val: "94534"
        string_val: "94089"
        string_val: "94044"
        string_val: "94574"
        string_val: "94801"
        string_val: "94552"
        string_val: "94618"
        string_val: "95407"
        string_val: "94401"
        string_val: "95134"
        string_val: "95220"
        string_val: "95207"
        string_val: "94086"
        string_val: "94020"
        string_val: "94103"
        string_val: "95060"
        string_val: "95006"
        string_val: "95060"
        string_val: "94553"
        string_val: "95005"
        string_val: "94102"
        string_val: "94080"
        string_val: "95120"
        string_val: "95351"
        string_val: "21401"
        string_val: "94702"
        string_val: "94949"
        string_val: "95666"
        string_val: "95076"
        string_val: "95330"
        string_val: "94544"
        string_val: "95003"
        string_val: "94521"
        string_val: "94611"
        string_val: "94710"
        string_val: "94080"
        string_val: "95004"
        string_val: "94577"
        string_val: "94030"
        string_val: "95209"
        string_val: "94089"
        string_val: "94080"
        string_val: "94060"
        string_val: "94517"
        string_val: "95688"
        string_val: "95376"
        string_val: "94931"
        string_val: "95010"
        string_val: "94510"
        string_val: "95618"
        string_val: "95032"
        string_val: "90266"
        string_val: "95209"
        string_val: "94590"
        string_val: "95133"
        string_val: "95336"
        string_val: "94102"
        string_val: "95376"
        string_val: "94591"
        string_val: "94806"
        string_val: "90266"
        string_val: "94602"
        string_val: "94102"
        string_val: "97701"
        string_val: "95209"
        string_val: "95237"
        string_val: "94591"
        string_val: "21401"
        string_val: "94019"
        string_val: "94559"
        string_val: "95030"
        string_val: "95391"
        string_val: "94510"
        string_val: "94501"
        string_val: "94605"
        string_val: "94010"
        string_val: "95132"
        string_val: "95066"
        string_val: "95825"
        string_val: "94158"
        string_val: "94040"
        string_val: "95004"
        string_val: "94702"
        string_val: "95409"
        string_val: "94549"
        string_val: "95401"
        string_val: "95212"
        string_val: "94553"
        string_val: "94591"
        string_val: "95465"
        string_val: "95351"
        string_val: "94601"
        string_val: "94025"
        string_val: "95132"
        string_val: "94105"
        string_val: "95405"
        string_val: "94965"
        string_val: "94553"
        string_val: "94116"
        string_val: "95448"
        string_val: "94534"
        string_val: "95065"
        string_val: "94123"
        string_val: "94585"
        string_val: "95361"
        string_val: "94132"
        string_val: "94589"
        string_val: "95497"
        string_val: "94804"
        string_val: "95209"
        string_val: "94123"
        string_val: "95203"
        string_val: "95062"
        string_val: "95688"
        string_val: "94578"
        string_val: "94566"
        string_val: "94801"
        string_val: "95051"
        string_val: "94931"
        string_val: "94606"
        string_val: "94022"
        string_val: "94521"
        string_val: "94118"
        string_val: "94803"
        string_val: "95687"
        string_val: "94080"
        string_val: "94574"
        string_val: "94505"
        string_val: "95220"
        string_val: "95330"
        string_val: "95020"
        string_val: "94541"
        string_val: "94541"
        string_val: "95032"
        string_val: "94533"
        string_val: "94525"
        string_val: "95133"
        string_val: "94560"
        string_val: "94560"
        string_val: "94070"
        string_val: "95648"
        string_val: "95037"
        string_val: "95003"
        string_val: "95648"
        string_val: "94065"
        string_val: "93292"
        string_val: "94553"
        string_val: "94080"
        string_val: "95666"
        string_val: "94518"
        string_val: "95007"
        string_val: "94608"
        string_val: "94592"
        string_val: "95112"
        string_val: "95361"
        string_val: "95035"
        string_val: "95046"
        string_val: "94901"
        string_val: "94545"
        string_val: "95126"
        string_val: "95116"
        string_val: "94583"
        string_val: "95336"
        string_val: "94521"
        string_val: "94801"
        string_val: "94550"
        string_val: "94404"
        string_val: "94589"
        string_val: "94574"
        string_val: "94608"
        string_val: "94598"
        string_val: "94551"
        string_val: "95436"
        string_val: "46123"
        string_val: "95018"
        string_val: "94133"
        string_val: "94552"
        string_val: "95367"
        string_val: "94903"
        string_val: "95111"
        string_val: "95687"
        string_val: "94104"
        string_val: "94062"
        string_val: "95030"
        string_val: "94605"
        string_val: "95425"
        string_val: "94553"
        string_val: "94507"
        string_val: "95240"
        string_val: "94611"
        string_val: "95361"
        string_val: "94703"
        string_val: "95465"
        string_val: "95204"
        string_val: "95032"
        string_val: "95403"
        string_val: "94112"
        string_val: "94122"
        string_val: "95330"
        string_val: "95367"
        string_val: "94303"
        string_val: "94531"
        string_val: "95121"
        string_val: "94517"
        string_val: "95240"
        string_val: "94901"
        string_val: "94024"
        string_val: "95003"
        string_val: "95361"
        string_val: "94505"
        string_val: "95337"
        string_val: "94534"
        string_val: "94525"
        string_val: "94502"
        string_val: "95134"
        string_val: "94515"
        string_val: "95918"
        string_val: "95111"
        string_val: "95051"
        string_val: "95336"
        string_val: "95650"
        string_val: "95425"
        string_val: "95209"
        string_val: "93292"
        string_val: "94102"
        string_val: "95687"
        string_val: "94598"
        string_val: "95336"
        string_val: "95825"
        string_val: "94945"
        string_val: "95116"
        string_val: "95206"
        string_val: "95070"
        string_val: "94103"
        string_val: "94619"
        string_val: "95148"
        string_val: "95336"
        string_val: "94534"
        string_val: "94301"
        string_val: "95439"
        string_val: "94545"
        string_val: "94117"
        string_val: "95060"
        string_val: "94590"
        string_val: "94015"
        string_val: "95125"
        string_val: "94591"
        string_val: "94024"
        string_val: "95236"
        string_val: "95240"
        string_val: "94027"
        string_val: "94503"
        string_val: "94133"
        string_val: "94010"
        string_val: "94043"
        string_val: "94806"
        string_val: "95236"
        string_val: "46123"
        string_val: "94599"
        string_val: "94925"
        string_val: "93501"
        string_val: "94528"
        string_val: "94112"
        string_val: "94939"
        string_val: "95050"
        string_val: "94022"
        string_val: "94063"
        string_val: "95212"
        string_val: "95425"
        string_val: "94928"
        string_val: "95476"
        string_val: "94920"
        string_val: "95618"
        string_val: "94596"
        string_val: "90266"
        string_val: "94607"
        string_val: "94607"
        string_val: "94925"
        string_val: "94070"
        string_val: "95361"
        string_val: "95131"
        string_val: "94080"
        string_val: "94542"
        string_val: "94949"
        string_val: "95136"
        string_val: "94960"
        string_val: "94558"
        string_val: "95409"
        string_val: "95123"
        string_val: "94965"
        string_val: "94518"
        string_val: "94607"
        string_val: "90266"
        string_val: "94621"
        string_val: "89431"
        string_val: "95060"
        string_val: "94904"
        string_val: "94920"
        string_val: "95134"
        string_val: "94957"
        string_val: "94118"
        string_val: "94608"
        string_val: "95330"
        string_val: "94563"
        string_val: "94595"
        string_val: "94107"
        string_val: "95050"
        string_val: "94806"
        string_val: "94904"
        string_val: "95066"
        string_val: "94952"
        string_val: "95207"
        string_val: "94110"
        string_val: "95476"
        string_val: "94608"
        string_val: "94517"
        string_val: "95409"
        string_val: "95112"
        string_val: "94566"
        string_val: "94024"
        string_val: "94924"
        string_val: "94103"
        string_val: "95330"
        string_val: "94086"
        string_val: "94590"
        string_val: "94559"
        string_val: "95136"
        string_val: "95125"
        string_val: "95132"
        string_val: "46123"
        string_val: "94608"
        string_val: "94502"
        string_val: "95062"
        string_val: "95132"
        string_val: "95008"
        string_val: "94551"
        string_val: "94903"
        string_val: "95207"
        string_val: "94931"
        string_val: "94123"
        string_val: "95126"
        string_val: "94965"
        string_val: "95258"
        string_val: "94517"
        string_val: "94027"
        string_val: "95825"
        string_val: "94567"
        string_val: "94552"
        string_val: "94541"
        string_val: "94517"
        string_val: "95461"
        string_val: "94952"
        string_val: "94002"
        string_val: "94965"
        string_val: "94507"
        string_val: "95206"
        string_val: "95118"
        string_val: "95062"
        string_val: "94533"
        string_val: "94103"
        string_val: "95134"
        string_val: "94014"
        string_val: "95128"
        string_val: "94546"
        string_val: "94804"
        string_val: "94505"
        string_val: "95004"
        string_val: "95452"
        string_val: "94521"
        string_val: "94574"
        string_val: "94107"
        string_val: "94526"
        string_val: "94578"
        string_val: "94559"
        string_val: "94551"
        string_val: "95465"
        string_val: "94123"
        string_val: "94903"
        string_val: "94591"
        string_val: "94619"
        string_val: "94121"
        string_val: "94541"
        string_val: "94025"
        string_val: "94102"
        string_val: "94402"
        string_val: "95409"
        string_val: "94102"
        string_val: "94521"
        string_val: "94585"
        string_val: "94599"
        string_val: "94610"
        string_val: "94602"
        string_val: "95422"
        string_val: "95304"
        string_val: "95139"
        string_val: "95209"
        string_val: "94534"
        string_val: "94520"
        string_val: "94610"
        string_val: "94611"
        string_val: "94612"
        string_val: "94503"
        string_val: "95110"
        string_val: "94403"
        string_val: "94123"
        string_val: "94301"
        string_val: "95694"
        string_val: "94552"
        string_val: "94601"
        string_val: "94510"
        string_val: "94587"
        string_val: "95209"
        string_val: "94116"
        string_val: "95207"
        string_val: "95237"
        string_val: "94549"
        string_val: "94920"
        string_val: "94577"
        string_val: "94587"
        string_val: "95005"
        string_val: "94702"
        string_val: "94904"
        string_val: "95023"
        string_val: "94705"
        string_val: "95351"
        string_val: "95032"
        string_val: "95112"
        string_val: "94920"
        string_val: "94551"
        string_val: "94582"
        string_val: "95476"
        string_val: "95391"
        string_val: "94931"
        string_val: "95472"
        string_val: "94536"
        string_val: "95134"
        string_val: "94924"
        string_val: "95407"
        string_val: "95409"
        string_val: "94952"
        string_val: "94610"
        string_val: "95320"
        string_val: "94592"
        string_val: "95023"
        string_val: "94903"
        string_val: "95618"
        string_val: "95452"
        string_val: "94080"
        string_val: "94118"
        string_val: "95628"
        string_val: "95632"
        string_val: "90266"
        string_val: "95351"
        string_val: "94515"
        string_val: "94559"
        string_val: "94577"
        string_val: "94538"
        string_val: "94025"
        string_val: "94804"
        string_val: "95004"
        string_val: "94536"
        string_val: "95918"
        string_val: "95060"
        string_val: "94610"
        string_val: "94551"
        string_val: "95367"
        string_val: "95252"
        string_val: "94560"
        string_val: "95116"
        string_val: "94590"
        string_val: "97701"
        string_val: "94005"
        string_val: "95242"
        string_val: "94520"
        string_val: "95209"
        string_val: "94901"
        string_val: "95122"
        string_val: "94513"
        string_val: "95240"
        string_val: "94801"
        string_val: "94109"
        string_val: "95351"
        string_val: "95252"
        string_val: "95409"
        string_val: "95134"
        string_val: "95220"
        string_val: "95377"
        string_val: "94041"
        string_val: "94510"
        string_val: "94510"
        string_val: "94550"
        string_val: "94063"
        string_val: "94583"
        string_val: "95207"
        string_val: "94513"
        string_val: "95116"
        string_val: "94133"
        string_val: "95060"
        string_val: "94596"
        string_val: "94928"
        string_val: "94115"
        string_val: "94538"
        string_val: "95030"
        string_val: "94301"
        string_val: "95252"
        string_val: "94970"
        string_val: "95688"
        string_val: "89431"
        string_val: "94105"
        string_val: "95476"
        string_val: "94945"
        string_val: "94111"
        string_val: "94022"
        string_val: "95127"
        string_val: "95117"
        string_val: "94087"
        string_val: "95648"
        string_val: "94528"
        string_val: "94586"
        string_val: "95403"
        string_val: "94015"
        string_val: "95336"
        string_val: "94585"
        string_val: "94515"
        string_val: "95441"
        string_val: "95240"
        string_val: "94903"
        string_val: "94133"
        string_val: "95650"
        string_val: "94533"
        string_val: "94014"
        string_val: "95113"
        string_val: "95687"
        string_val: "94571"
        string_val: "94116"
        string_val: "95330"
        string_val: "94060"
        string_val: "94530"
        string_val: "94124"
        string_val: "94931"
        string_val: "94952"
        string_val: "94133"
        string_val: "94587"
        string_val: "95442"
        string_val: "94022"
        string_val: "95320"
        string_val: "94931"
        string_val: "94920"
        string_val: "95918"
        string_val: "95401"
        string_val: "94080"
        string_val: "95403"
        string_val: "95134"
        string_val: "95650"
        string_val: "95258"
        string_val: "95448"
        string_val: "89431"
        string_val: "94709"
        string_val: "95030"
        string_val: "95367"
        string_val: "95421"
        string_val: "93501"
        string_val: "94110"
        string_val: "94530"
        string_val: "95409"
        string_val: "94111"
        string_val: "94526"
        string_val: "94303"
        string_val: "95361"
        string_val: "94112"
        string_val: "94805"
        string_val: "95376"
        string_val: "95361"
        string_val: "95336"
        string_val: "95065"
        string_val: "94945"
        string_val: "94585"
        string_val: "95618"
        string_val: "94015"
        string_val: "94402"
        string_val: "95122"
        string_val: "94595"
        string_val: "94904"
        string_val: "94922"
        string_val: "94063"
        string_val: "95012"
        string_val: "94509"
        string_val: "94521"
        string_val: "94538"
        string_val: "94404"
        string_val: "95033"
        string_val: "94028"
        string_val: "94550"
        string_val: "94595"
        string_val: "95687"
        string_val: "94132"
        string_val: "94109"
        string_val: "94590"
        string_val: "94505"
        string_val: "94619"
        string_val: "94118"
        string_val: "95230"
        string_val: "94929"
        string_val: "94585"
        string_val: "94605"
        string_val: "95051"
        string_val: "94107"
        string_val: "94111"
        string_val: "95007"
        string_val: "94547"
        string_val: "95033"
        string_val: "94923"
        string_val: "94116"
        string_val: "95202"
        string_val: "95436"
        string_val: "94533"
        string_val: "93292"
        string_val: "94404"
        string_val: "94607"
        string_val: "94585"
        string_val: "94401"
        string_val: "94951"
        string_val: "94546"
        string_val: "95215"
        string_val: "94585"
        string_val: "94109"
        string_val: "94133"
        string_val: "95030"
        string_val: "95066"
        string_val: "94116"
        string_val: "90266"
        string_val: "94403"
        string_val: "94589"
        string_val: "95006"
        string_val: "95118"
        string_val: "94599"
        string_val: "94605"
        string_val: "94505"
        string_val: "94920"
        string_val: "95445"
        string_val: "95076"
        string_val: "94025"
        string_val: "94533"
        string_val: "94521"
        string_val: "94590"
        string_val: "95209"
        string_val: "94599"
        string_val: "94508"
        string_val: "94103"
        string_val: "95351"
        string_val: "94555"
        string_val: "95409"
        string_val: "95122"
        string_val: "95033"
        string_val: "94089"
        string_val: "95476"
        string_val: "95037"
        string_val: "94121"
        string_val: "94402"
        string_val: "94558"
        string_val: "94103"
        string_val: "95215"
        string_val: "94587"
        string_val: "95121"
        string_val: "94014"
        string_val: "94577"
        string_val: "46123"
        string_val: "95032"
        string_val: "95376"
        string_val: "94116"
        string_val: "95405"
        string_val: "95066"
        string_val: "94558"
        string_val: "94702"
        string_val: "94010"
        string_val: "94517"
        string_val: "94028"
        string_val: "94015"
        string_val: "94924"
        string_val: "95209"
        string_val: "94027"
        string_val: "95123"
        string_val: "95620"
        string_val: "94941"
        string_val: "94025"
        string_val: "94525"
        string_val: "94304"
        string_val: "94951"
        string_val: "95207"
        string_val: "94546"
        string_val: "95446"
        string_val: "94574"
        string_val: "94602"
        string_val: "95632"
        string_val: "94043"
        string_val: "95003"
        string_val: "94560"
        string_val: "94705"
        string_val: "95112"
        string_val: "94607"
        string_val: "94553"
        string_val: "95060"
        string_val: "95004"
        string_val: "95446"
        string_val: "95129"
        string_val: "95240"
        string_val: "95110"
        string_val: "94960"
        string_val: "94923"
        string_val: "95023"
        string_val: "95007"
        string_val: "94541"
        string_val: "94555"
        string_val: "94002"
        string_val: "94110"
        string_val: "95121"
        string_val: "95391"
        string_val: "95030"
        string_val: "95010"
        string_val: "94301"
        string_val: "94538"
        string_val: "94520"
        string_val: "95242"
        string_val: "94521"
        string_val: "94928"
        string_val: "94536"
        string_val: "95336"
        string_val: "94301"
        string_val: "95032"
        string_val: "94560"
        string_val: "94061"
        string_val: "94606"
        string_val: "94608"
        string_val: "95212"
        string_val: "94112"
        string_val: "95035"
        string_val: "95004"
        string_val: "95131"
        string_val: "95202"
        string_val: "94556"
        string_val: "94501"
        string_val: "95688"
        string_val: "94539"
        string_val: "95206"
        string_val: "94621"
        string_val: "95002"
        string_val: "94133"
        string_val: "94573"
        string_val: "94578"
        string_val: "95409"
        string_val: "94965"
        string_val: "95632"
        string_val: "94122"
        string_val: "95148"
        string_val: "94949"
        string_val: "94536"
        string_val: "94552"
        string_val: "94102"
        string_val: "94804"
        string_val: "94549"
        string_val: "94612"
        string_val: "95066"
        string_val: "95006"
        string_val: "95628"
        string_val: "94021"
        string_val: "95445"
        string_val: "94599"
        string_val: "94920"
        string_val: "95404"
        string_val: "95046"
        string_val: "95202"
        string_val: "95209"
        string_val: "94117"
        string_val: "95219"
        string_val: "94528"
        string_val: "94920"
        string_val: "94080"
        string_val: "94025"
        string_val: "95304"
        string_val: "95442"
        string_val: "94553"
        string_val: "94549"
        string_val: "95070"
        string_val: "94070"
        string_val: "95688"
        string_val: "94574"
        string_val: "94556"
        string_val: "95228"
        string_val: "94542"
        string_val: "95337"
        string_val: "95376"
        string_val: "94546"
        string_val: "94158"
        string_val: "94587"
        string_val: "95111"
        string_val: "94591"
        string_val: "21401"
        string_val: "94901"
        string_val: "94924"
        string_val: "94599"
        string_val: "95207"
        string_val: "94530"
        string_val: "94541"
        string_val: "94702"
        string_val: "94605"
        string_val: "94109"
        string_val: "94931"
        string_val: "95650"
        string_val: "94530"
        string_val: "95118"
        string_val: "94523"
        string_val: "95409"
        string_val: "94506"
        string_val: "95127"
        string_val: "94105"
        string_val: "94123"
        string_val: "94806"
        string_val: "95023"
        string_val: "94086"
        string_val: "95121"
        string_val: "95618"
        string_val: "94605"
        string_val: "94610"
        string_val: "94903"
        string_val: "95123"
        string_val: "95918"
        string_val: "95215"
        string_val: "95076"
        string_val: "95409"
        string_val: "94595"
        string_val: "95476"
        string_val: "94558"
        string_val: "94931"
        string_val: "94122"
        string_val: "94805"
        string_val: "94111"
        string_val: "95476"
        string_val: "95050"
        string_val: "95045"
        string_val: "95133"
        string_val: "94523"
        string_val: "94621"
        string_val: "95121"
        string_val: "95215"
        string_val: "94611"
        string_val: "95202"
        string_val: "94591"
        string_val: "94552"
        string_val: "95320"
        string_val: "46123"
        string_val: "95207"
        string_val: "94559"
        string_val: "95125"
        string_val: "95690"
        string_val: "95132"
        string_val: "95409"
        string_val: "94545"
        string_val: "94102"
        string_val: "90266"
        string_val: "95401"
        string_val: "94601"
        string_val: "94502"
        string_val: "94599"
        string_val: "94015"
        string_val: "95367"
        string_val: "90266"
        string_val: "94574"
        string_val: "95134"
        string_val: "94027"
        string_val: "94703"
        string_val: "94563"
        string_val: "95445"
        string_val: "95010"
        string_val: "94404"
        string_val: "94505"
        string_val: "95060"
        string_val: "95140"
        string_val: "95320"
        string_val: "94591"
        string_val: "95206"
        string_val: "94061"
        string_val: "95688"
        string_val: "94404"
        string_val: "94531"
        string_val: "94086"
        string_val: "94945"
        string_val: "95132"
        string_val: "95111"
        string_val: "94591"
        string_val: "94703"
        string_val: "94531"
        string_val: "94132"
        string_val: "94602"
        string_val: "95123"
        string_val: "95062"
        string_val: "94062"
        string_val: "95620"
        string_val: "95005"
        string_val: "95136"
        string_val: "94112"
        string_val: "94558"
        string_val: "94041"
        string_val: "94018"
        string_val: "94506"
        string_val: "95825"
        string_val: "95422"
        string_val: "94949"
        string_val: "94404"
        string_val: "94707"
        string_val: "94803"
        string_val: "93292"
        string_val: "94123"
        string_val: "95361"
        string_val: "94301"
        string_val: "94556"
        string_val: "94530"
        string_val: "94580"
        string_val: "94127"
        string_val: "94602"
        string_val: "94553"
        string_val: "94509"
        string_val: "94618"
        string_val: "94061"
        string_val: "95014"
        string_val: "94542"
        string_val: "94015"
        string_val: "94591"
        string_val: "95111"
        string_val: "95377"
        string_val: "90266"
        string_val: "95367"
        string_val: "94131"
        string_val: "94621"
        string_val: "94595"
        string_val: "95076"
        string_val: "94002"
        string_val: "95035"
        string_val: "95202"
        string_val: "94705"
        string_val: "94110"
        string_val: "95121"
        string_val: "95694"
        string_val: "95066"
        string_val: "95003"
        string_val: "95014"
        string_val: "94904"
        string_val: "95476"
        string_val: "95476"
        string_val: "89431"
        string_val: "95476"
        string_val: "94513"
        string_val: "95134"
        string_val: "94015"
        string_val: "95135"
        string_val: "94903"
        string_val: "94920"
        string_val: "94538"
        string_val: "95204"
        string_val: "94089"
        string_val: "94519"
        string_val: "94903"
        string_val: "94609"
        string_val: "95008"
        string_val: "94517"
        string_val: "94087"
        string_val: "95051"
        string_val: "94086"
        string_val: "94618"
        string_val: "95117"
        string_val: "95304"
        string_val: "94022"
        string_val: "95336"
        string_val: "94521"
        string_val: "95497"
        string_val: "94965"
        string_val: "94565"
        string_val: "94571"
        string_val: "94930"
        string_val: "94103"
        string_val: "94110"
        string_val: "95446"
        string_val: "95425"
        string_val: "94544"
        string_val: "95206"
        string_val: "95351"
        string_val: "94501"
        string_val: "94806"
        string_val: "95131"
        string_val: "94605"
        string_val: "94548"
        string_val: "94923"
        string_val: "94954"
        string_val: "94566"
        string_val: "95003"
        string_val: "94574"
        string_val: "95441"
        string_val: "94158"
        string_val: "95620"
        string_val: "94541"
        string_val: "94025"
        string_val: "95123"
        string_val: "94030"
        string_val: "94605"
        string_val: "94573"
        string_val: "95616"
        string_val: "95003"
        string_val: "95076"
        string_val: "94123"
        string_val: "94115"
        string_val: "94606"
        string_val: "94552"
        string_val: "95023"
        string_val: "94549"
        string_val: "95385"
        string_val: "94509"
        string_val: "95405"
        string_val: "94965"
        string_val: "94303"
        string_val: "94505"
        string_val: "94550"
        string_val: "95203"
        string_val: "94080"
        string_val: "94107"
        string_val: "94542"
        string_val: "94505"
        string_val: "94541"
        string_val: "94590"
        string_val: "94041"
        string_val: "95825"
        string_val: "94903"
        string_val: "94117"
        string_val: "94520"
        string_val: "94544"
        string_val: "94553"
        string_val: "94509"
        string_val: "95010"
        string_val: "94551"
        string_val: "94928"
        string_val: "94710"
        string_val: "94544"
        string_val: "95066"
        string_val: "94127"
        string_val: "94515"
        string_val: "95123"
        string_val: "94608"
        string_val: "95376"
        string_val: "95404"
        string_val: "95376"
        string_val: "94574"
        string_val: "95688"
        string_val: "94973"
        string_val: "94517"
        string_val: "95442"
        string_val: "95237"
        string_val: "95033"
        string_val: "94945"
        string_val: "95628"
        string_val: "94595"
        string_val: "94587"
        string_val: "94526"
        string_val: "95209"
        string_val: "94062"
        string_val: "94578"
        string_val: "94108"
        string_val: "94501"
        string_val: "94521"
        string_val: "94578"
        string_val: "95405"
        string_val: "95441"
        string_val: "94930"
        string_val: "95126"
        string_val: "95123"
        string_val: "94102"
        string_val: "95404"
        string_val: "94587"
        string_val: "95066"
        string_val: "94550"
        string_val: "94806"
        string_val: "94945"
        string_val: "95113"
        string_val: "95472"
        string_val: "95116"
        string_val: "94621"
        string_val: "94587"
        string_val: "95045"
        string_val: "94041"
        string_val: "95462"
        string_val: "94510"
        string_val: "94558"
        string_val: "89431"
        string_val: "94590"
        string_val: "94579"
        string_val: "94015"
        string_val: "95366"
        string_val: "95628"
        string_val: "94507"
        string_val: "94555"
        string_val: "94103"
        string_val: "94609"
        string_val: "94515"
        string_val: "94062"
        string_val: "95005"
        string_val: "95650"
        string_val: "94579"
        string_val: "94951"
        string_val: "94928"
        string_val: "95006"
        string_val: "95209"
        string_val: "95111"
        string_val: "94066"
        string_val: "94931"
        string_val: "94565"
        string_val: "94107"
        string_val: "94547"
        string_val: "95361"
        string_val: "94611"
        string_val: "94124"
        string_val: "94062"
        string_val: "95207"
        string_val: "94158"
        string_val: "95445"
        string_val: "94592"
        string_val: "94587"
        string_val: "94089"
        string_val: "95134"
        string_val: "94002"
        string_val: "95616"
        string_val: "94931"
        string_val: "94583"
        string_val: "95135"
        string_val: "94027"
        string_val: "94124"
        string_val: "95129"
        string_val: "94403"
        string_val: "95258"
        string_val: "94041"
        string_val: "94118"
        string_val: "94538"
        string_val: "95128"
        string_val: "94579"
        string_val: "94108"
        string_val: "94553"
        string_val: "95004"
        string_val: "94110"
        string_val: "94965"
        string_val: "95258"
        string_val: "95133"
        string_val: "95060"
        string_val: "95407"
        string_val: "94517"
        string_val: "94503"
        string_val: "94605"
        string_val: "95616"
        string_val: "95132"
        string_val: "90266"
        string_val: "95209"
        string_val: "94605"
        string_val: "94945"
        string_val: "94105"
        string_val: "95366"
        string_val: "97701"
        string_val: "94111"
        string_val: "94580"
        string_val: "94061"
        string_val: "94612"
        string_val: "95694"
        string_val: "94526"
        string_val: "95462"
        string_val: "94708"
        string_val: "94595"
        string_val: "95110"
        string_val: "94702"
        string_val: "94024"
        string_val: "95121"
        string_val: "95203"
        string_val: "94608"
        string_val: "94041"
        string_val: "94803"
        string_val: "95204"
        string_val: "94577"
        string_val: "94705"
        string_val: "95037"
        string_val: "95492"
        string_val: "94949"
        string_val: "94590"
        string_val: "94158"
        string_val: "94132"
        string_val: "94158"
        string_val: "94041"
        string_val: "94103"
        string_val: "95336"
        string_val: "94592"
        string_val: "21401"
        string_val: "95825"
        string_val: "94618"
        string_val: "95126"
        string_val: "95648"
        string_val: "95825"
        string_val: "94112"
        string_val: "94521"
        string_val: "95207"
        string_val: "94123"
        string_val: "94563"
        string_val: "95122"
        string_val: "94957"
        string_val: "95204"
        string_val: "94536"
        string_val: "95220"
        string_val: "95122"
        string_val: "94080"
        string_val: "95135"
        string_val: "95125"
        string_val: "94024"
        string_val: "94019"
        string_val: "94010"
        string_val: "94062"
        string_val: "94038"
        string_val: "94110"
        string_val: "94065"
        string_val: "94117"
        string_val: "94801"
      }
    }
  }
}
node {
  name: "SparseTensor/shape"
  op: "Const"
  attr {
    key: "_output_shapes"
    value {
      list {
        shape {
          dim {
            size: 2
          }
        }
      }
    }
  }
  attr {
    key: "dtype"
    value {
      type: DT_INT64
    }
  }
  attr {
    key: "value"
    value {
      tensor {
        dtype: DT_INT64
        tensor_shape {
          dim {
            size: 2
          }
        }
        tensor_content: "v\014\000\000\000\000\000\000\001\000\000\000\000\000\000\000"
      }
    }
  }
}
node {
  name: "SparseTensor_1/indices"
  op: "Const"
  attr {
    key: "_output_shapes"
    value {
      list {
        shape {
          dim {
            size: 3190
          }
          dim {
            size: 2
          }
        }
      }
    }
  }
  attr {
    key: "dtype"
    value {
      type: DT_INT64
    }
  }
  attr {
    key: "value"
    value {
      tensor {
        dtype: DT_INT64
        tensor_shape {
          dim {
            size: 3190
          }
          dim {
            size: 2
          }
        }
        tensor_content: "…"
      }
    }
  }
}
node {
  name: "SparseTensor_1/values"
  op: "Const"
  attr {
    key: "_output_shapes"
    value {
      list {
        shape {
          dim {
            size: 3190
          }
        }
      }
    }
  }
  attr {
    key: "dtype"
    value {
      type: DT_STRING
    }
  }
  attr {
    key: "value"
    value {
      tensor {
        dtype: DT_STRING
        tensor_shape {
          dim {
            size: 3190
          }
        }
        string_val: "Mobile / Manufactured"
        string_val: "Single Family"
        string_val: "Single Family"
        string_val: "Single Family"
        string_val: "Single Family"
        string_val: "Multi Family"
        string_val: "Condo"
        string_val: "Single Family"
        string_val: "Single Family"
        string_val: "Single Family"
        string_val: "Single Family"
        string_val: "Single Family"
        string_val: "Single Family"
        string_val: "Single Family"
        string_val: "Single Family"
        string_val: "Single Family"
        string_val: "Single Family"
        string_val: "Single Family"
        string_val: "Single Family"
        string_val: "Single Family"
        string_val: "Single Family"
        string_val: "Single Family"
        string_val: "Mobile / Manufactured"
        string_val: "Single Family"
        string_val: "Single Family"
        string_val: "Single Family"
        string_val: "Single Family"
        string_val: "Condo"
        string_val: "Condo"
        string_val: "Single Family"
        string_val: "Condo"
        string_val: "Single Family"
        string_val: "Multi Family"
        string_val: "Single Family"
        string_val: "Single Family"
        string_val: "Multi Family"
        string_val: "Townhouse"
        string_val: "Single Family"
        string_val: "Condo"
        string_val: "Single Family"
        string_val: "Single Family"
        string_val: "Condo"
        string_val: "Single Family"
        string_val: "Single Family"
        string_val: "Mobile / Manufactured"
        string_val: "Single Family"
        string_val: "Single Family"
        string_val: "Single Family"
        string_val: "Condo"
        string_val: "Condo"
        string_val: "Mobile / Manufactured"
        string_val: "Single Family"
        string_val: "Single Family"
        string_val: "Single Family"
        string_val: "Condo"
        string_val: "Single Family"
        string_val: "Single Family"
        string_val: "Single Family"
        string_val: "Mobile / Manufactured"
        string_val: "Single Family"
        string_val: "Condo"
        string_val: "Single Family"
        string_val: "Single Family"
        string_val: "Condo"
        string_val: "Single Family"
        string_val: "Single Family"
        string_val: "Townhouse"
        string_val: "Multi Family"
        string_val: "Single Family"
        string_val: "Single Family"
        string_val: "Single Family"
        string_val: "Single Family"
        string_val: "Mobile / Manufactured"
        string_val: "Single Family"
        string_val: "Condo"
        string_val: "Single Family"
        string_val: "Single Family"
        string_val: "Single Family"
        string_val: "Single Family"
        string_val: "Single Family"
        string_val: "Single Family"
        string_val: "Single Family"
        string_val: "Single Family"
        string_val: "Condo"
        string_val: "Single Family"
        string_val: "Single Family"
        string_val: "Mobile / Manufactured"
        string_val: "Single Family"
        string_val: "Single Family"
        string_val: "Single Family"
        string_val: "Single Family"
        string_val: "Single Family"
        string_val: "Single Family"
        string_val: "Single Family"
        string_val: "Single Family"
        string_val: "Condo"
        string_val: "Single Family"
        string_val: "Mobile / Manufactured"
        string_val: "Single Family"
        string_val: "Single Family"
        string_val: "Condo"
        string_val: "Single Family"
        string_val: "Mobile / Manufactured"
        string_val: "Condo"
        string_val: "Mobile / Manufactured"
        string_val: "Condo"
        string_val: "Multi Family"
        string_val: "Single Family"
        string_val: "Condo"
        string_val: "Condo"
        string_val: "Townhouse"
        string_val: "Multi Family"
        string_val: "Single Family"
        string_val: "Condo"
        string_val: "Condo"
        string_val: "Single Family"
        string_val: "Single Family"
        string_val: "Single Family"
        string_val: "Multi Family"
        string_val: "Single Family"
        string_val: "Single Family"
        string_val: "Single Family"
        string_val: "Single Family"
        string_val: "Single Family"
        string_val: "Single Family"
        string_val: "Condo"
        string_val: "Single Family"
        string_val: "Single Family"
        string_val: "Single Family"
        string_val: "Single Family"
        string_val: "Mobile / Manufactured"
        string_val: "Condo"
        string_val: "Single Family"
        string_val: "Single Family"
        string_val: "Condo"
        string_val: "Single Family"
        string_val: "Single Family"
        string_val: "Mobile / Manufactured"
        string_val: "Single Family"
        string_val: "Single Family"
        string_val: "Single Family"
        string_val: "Single Family"
        string_val: "Single Family"
        string_val: "Condo"
        string_val: "Single Family"
        string_val: "Single Family"
        string_val: "Single Family"
        string_val: "Multi Family"
        string_val: "Single Family"
        string_val: "Single Family"
        string_val: "Condo"
        string_val: "Single Family"
        string_val: "Single Family"
        string_val: "Single Family"
        string_val: "Miscellaneous"
        string_val: "Multi Family"
        string_val: "Single Family"
        string_val: "Single Family"
        string_val: "Single Family"
        string_val: "Single Family"
        string_val: "Single Family"
        string_val: "Single Family"
        string_val: "Multi Family"
        string_val: "Single Family"
        string_val: "Single Family"
        string_val: "Single Family"
        string_val: "Single Family"
        string_val: "Single Family"
        string_val: "Single Family"
        string_val: "Condo"
        string_val: "Single Family"
        string_val: "Single Family"
        string_val: "Condo"
        string_val: "Single Family"
        string_val: "Single Family"
        string_val: "Single Family"
        string_val: "Single Family"
        string_val: "Multi Family"
        string_val: "Townhouse"
        string_val: "Single Family"
        string_val: "Single Family"
        string_val: "Single Family"
        string_val: "Single Family"
        string_val: "Single Family"
        string_val: "Multi Family"
        string_val: "Single Family"
        string_val: "Single Family"
        string_val: "Multi Family"
        string_val: "Single Family"
        string_val: "Multi Family"
        string_val: "Single Family"
        string_val: "Single Family"
        string_val: "Single Family"
        string_val: "Mobile / Manufactured"
        string_val: "Mobile / Manufactured"
        string_val: "Single Family"
        string_val: "Single Family"
        string_val: "Multi Family"
        string_val: "Single Family"
        string_val: "Single Family"
        string_val: "Multi Family"
        string_val: "Mobile / Manufactured"
        string_val: "Single Family"
        string_val: "Single Family"
        string_val: "Single Family"
        string_val: "Single Family"
        string_val: "Single Family"
        string_val: "Condo"
        string_val: "Condo"
        string_val: "Single Family"
        string_val: "Single Family"
        string_val: "Single Family"
        string_val: "Single Family"
        string_val: "Single Family"
        string_val: "Single Family"
        string_val: "Single Family"
        string_val: "Single Family"
        string_val: "Single Family"
        string_val: "Single Family"
        string_val: "Multi Family"
        string_val: "Single Family"
        string_val: "Single Family"
        string_val: "Condo"
        string_val: "Single Family"
        string_val: "Single Family"
        string_val: "Single Family"
        string_val: "Single Family"
        string_val: "Single Family"
        string_val: "Mobile / Manufactured"
        string_val: "Mobile / Manufactured"
        string_val: "Single Family"
        string_val: "Condo"
        string_val: "Single Family"
        string_val: "Single Family"
        string_val: "Single Family"
        string_val: "Single Family"
        string_val: "Single Family"
        string_val: "Single Family"
        string_val: "Condo"
        string_val: "Single Family"
        string_val: "Single Family"
        string_val: "Single Family"
        string_val: "Multi Family"
        string_val: "Condo"
        string_val: "Townhouse"
        string_val: "Single Family"
        string_val: "Single Family"
        string_val: "Single Family"
        string_val: "Single Family"
        string_val: "Condo"
        string_val: "Single Family"
        string_val: "Single Family"
        string_val: "Multi Family"
        string_val: "Single Family"
        string_val: "Single Family"
        string_val: "Single Family"
        string_val: "Townhouse"
        string_val: "Single Family"
        string_val: "Single Family"
        string_val: "Single Family"
        string_val: "Single Family"
        string_val: "Single Family"
        string_val: "Single Family"
        string_val: "Single Family"
        string_val: "Single Family"
        string_val: "Single Family"
        string_val: "Single Family"
        string_val: "Single Family"
        string_val: "Condo"
        string_val: "Single Family"
        string_val: "Single Family"
        string_val: "Cooperative"
        string_val: "Single Family"
        string_val: "Single Family"
        string_val: "Townhouse"
        string_val: "Single Family"
        string_val: "Single Family"
        string_val: "Single Family"
        string_val: "Condo"
        string_val: "Townhouse"
        string_val: "Single Family"
        string_val: "Single Family"
        string_val: "Condo"
        string_val: "Single Family"
        string_val: "Condo"
        string_val: "Single Family"
        string_val: "Single Family"
        string_val: "Townhouse"
        string_val: "Single Family"
        string_val: "Single Family"
        string_val: "Townhouse"
        string_val: "Single Family"
        string_val: "Single Family"
        string_val: "Condo"
        string_val: "Single Family"
        string_val: "Single Family"
        string_val: "Single Family"
        string_val: "Single Family"
        string_val: "Single Family"
        string_val: "Single Family"
        string_val: "Single Family"
        string_val: "Single Family"
        string_val: "Single Family"
        string_val: "Mobile / Manufactured"
        string_val: "Single Family"
        string_val: "Single Family"
        string_val: "Single Family"
        string_val: "Single Family"
        string_val: "Condo"
        string_val: "Condo"
        string_val: "Single Family"
        string_val: "Mobile / Manufactured"
        string_val: "Single Family"
        string_val: "Single Family"
        string_val: "Single Family"
        string_val: "Miscellaneous"
        string_val: "Single Family"
        string_val: "Mobile / Manufactured"
        string_val: "Single Family"
        string_val: "Mobile / Manufactured"
        string_val: "Single Family"
        string_val: "Condo"
        string_val: "Condo"
        string_val: "Single Family"
        string_val: "Single Family"
        string_val: "Multi Family"
        string_val: "Single Family"
        string_val: "Condo"
        string_val: "Single Family"
        string_val: "Single Family"
        string_val: "Single Family"
        string_val: "Multi Family"
        string_val: "Single Family"
        string_val: "Single Family"
        string_val: "Single Family"
        string_val: "Single Family"
        string_val: "Mobile / Manufactured"
        string_val: "Single Family"
        string_val: "Single Family"
        string_val: "Single Family"
        string_val: "Condo"
        string_val: "Single Family"
        string_val: "Mobile / Manufactured"
        string_val: "Single Family"
        string_val: "Single Family"
        string_val: "Single Family"
        string_val: "Single Family"
        string_val: "Single Family"
        string_val: "Single Family"
        string_val: "Single Family"
        string_val: "Single Family"
        string_val: "Multi Family"
        string_val: "Single Family"
        string_val: "Single Family"
        string_val: "Single Family"
        string_val: "Single Family"
        string_val: "Single Family"
        string_val: "Multi Family"
        string_val: "Single Family"
        string_val: "Multi Family"
        string_val: "Single Family"
        string_val: "Condo"
        string_val: "Single Family"
        string_val: "Single Family"
        string_val: "Single Family"
        string_val: "Single Family"
        string_val: "Condo"
        string_val: "Single Family"
        string_val: "Condo"
        string_val: "Single Family"
        string_val: "Single Family"
        string_val: "Single Family"
        string_val: "Multi Family"
        string_val: "Single Family"
        string_val: "Single Family"
        string_val: "Single Family"
        string_val: "Single Family"
        string_val: "Single Family"
        string_val: "Single Family"
        string_val: "Condo"
        string_val: "Single Family"
        string_val: "Condo"
        string_val: "Condo"
        string_val: "Single Family"
        string_val: "Single Family"
        string_val: "Townhouse"
        string_val: "Single Family"
        string_val: "Single Family"
        string_val: "Single Family"
        string_val: "Single Family"
        string_val: "Single Family"
        string_val: "Single Family"
        string_val: "Single Family"
        string_val: "Single Family"
        string_val: "Single Family"
        string_val: "Single Family"
        string_val: "Single Family"
        string_val: "Single Family"
        string_val: "Single Family"
        string_val: "Multi Family"
        string_val: "Single Family"
        string_val: "Mobile / Manufactured"
        string_val: "Single Family"
        string_val: "Single Family"
        string_val: "Single Family"
        string_val: "Single Family"
        string_val: "Single Family"
        string_val: "Single Family"
        string_val: "Single Family"
        string_val: "Townhouse"
        string_val: "Single Family"
        string_val: "Single Family"
        string_val: "Single Family"
        string_val: "Single Family"
        string_val: "Condo"
        string_val: "Condo"
        string_val: "Single Family"
        string_val: "Single Family"
        string_val: "Multi Family"
        string_val: "Single Family"
        string_val: "Single Family"
        string_val: "Single Family"
        string_val: "Single Family"
        string_val: "Single Family"
        string_val: "Single Family"
        string_val: "Single Family"
        string_val: "Mobile / Manufactured"
        string_val: "Single Family"
        string_val: "Single Family"
        string_val: "Mobile / Manufactured"
        string_val: "Single Family"
        string_val: "Single Family"
        string_val: "Single Family"
        string_val: "Single Family"
        string_val: "Single Family"
        string_val: "Single Family"
        string_val: "Single Family"
        string_val: "Single Family"
        string_val: "Single Family"
        string_val: "Single Family"
        string_val: "Single Family"
        string_val: "Condo"
        string_val: "Single Family"
        string_val: "Single Family"
        string_val: "Single Family"
        string_val: "Single Family"
        string_val: "Single Family"
        string_val: "Single Family"
        string_val: "Single Family"
        string_val: "Condo"
        string_val: "Single Family"
        string_val: "Single Family"
        string_val: "Single Family"
        string_val: "Single Family"
        string_val: "Single Family"
        string_val: "Single Family"
        string_val: "Single Family"
        string_val: "Single Family"
        string_val: "Single Family"
        string_val: "Condo"
        string_val: "Single Family"
        string_val: "Townhouse"
        string_val: "Single Family"
        string_val: "Single Family"
        string_val: "Condo"
        string_val: "Single Family"
        string_val: "Single Family"
        string_val: "Single Family"
        string_val: "Single Family"
        string_val: "Multi Family"
        string_val: "Single Family"
        string_val: "Single Family"
        string_val: "Single Family"
        string_val: "Single Family"
        string_val: "Single Family"
        string_val: "Single Family"
        string_val: "Condo"
        string_val: "Single Family"
        string_val: "Single Family"
        string_val: "Single Family"
        string_val: "Single Family"
        string_val: "Condo"
        string_val: "Single Family"
        string_val: "Single Family"
        string_val: "Condo"
        string_val: "Single Family"
        string_val: "Single Family"
        string_val: "Single Family"
        string_val: "Townhouse"
        string_val: "Single Family"
        string_val: "Townhouse"
        string_val: "Single Family"
        string_val: "Single Family"
        string_val: "Single Family"
        string_val: "Single Family"
        string_val: "Single Family"
        string_val: "Single Family"
        string_val: "Single Family"
        string_val: "Single Family"
        string_val: "Condo"
        string_val: "Townhouse"
        string_val: "Single Family"
        string_val: "Condo"
        string_val: "Condo"
        string_val: "Single Family"
        string_val: "Single Family"
        string_val: "Single Family"
        string_val: "Mobile / Manufactured"
        string_val: "Single Family"
        string_val: "Single Family"
        string_val: "Single Family"
        string_val: "Mobile / Manufactured"
        string_val: "Single Family"
        string_val: "Single Family"
        string_val: "Townhouse"
        string_val: "Single Family"
        string_val: "Mobile / Manufactured"
        string_val: "Single Family"
        string_val: "Single Family"
        string_val: "Single Family"
        string_val: "Single Family"
        string_val: "Condo"
        string_val: "Single Family"
        string_val: "Single Family"
        string_val: "Single Family"
        string_val: "Single Family"
        string_val: "Single Family"
        string_val: "Single Family"
        string_val: "Single Family"
        string_val: "Single Family"
        string_val: "Single Family"
        string_val: "Single Family"
        string_val: "Single Family"
        string_val: "Single Family"
        string_val: "Single Family"
        string_val: "Condo"
        string_val: "Single Family"
        string_val: "Single Family"
        string_val: "Single Family"
        string_val: "Single Family"
        string_val: "Single Family"
        string_val: "Condo"
        string_val: "Single Family"
        string_val: "Single Family"
        string_val: "Single Family"
        string_val: "Single Family"
        string_val: "Condo"
        string_val: "Mobile / Manufactured"
        string_val: "Townhouse"
        string_val: "Condo"
        string_val: "Mobile / Manufactured"
        string_val: "Single Family"
        string_val: "Single Family"
        string_val: "Single Family"
        string_val: "Single Family"
        string_val: "Single Family"
        string_val: "Mobile / Manufactured"
        string_val: "Single Family"
        string_val: "Single Family"
        string_val: "Single Family"
        string_val: "Single Family"
        string_val: "Single Family"
        string_val: "Single Family"
        string_val: "Single Family"
        string_val: "Miscellaneous"
        string_val: "Single Family"
        string_val: "Condo"
        string_val: "Single Family"
        string_val: "Single Family"
        string_val: "Mobile / Manufactured"
        string_val: "Single Family"
        string_val: "Cooperative"
        string_val: "Single Family"
        string_val: "Single Family"
        string_val: "Single Family"
        string_val: "Condo"
        string_val: "Single Family"
        string_val: "Single Family"
        string_val: "Single Family"
        string_val: "Single Family"
        string_val: "Single Family"
        string_val: "Single Family"
        string_val: "Single Family"
        string_val: "Condo"
        string_val: "Single Family"
        string_val: "Single Family"
        string_val: "Single Family"
        string_val: "Condo"
        string_val: "Single Family"
        string_val: "Single Family"
        string_val: "Single Family"
        string_val: "Single Family"
        string_val: "Single Family"
        string_val: "Single Family"
        string_val: "Single Family"
        string_val: "Single Family"
        string_val: "Single Family"
        string_val: "Single Family"
        string_val: "Single Family"
        string_val: "Single Family"
        string_val: "Multi Family"
        string_val: "Single Family"
        string_val: "Condo"
        string_val: "Condo"
        string_val: "Single Family"
        string_val: "Condo"
        string_val: "Condo"
        string_val: "Single Family"
        string_val: "Mobile / Manufactured"
        string_val: "Single Family"
        string_val: "Single Family"
        string_val: "Mobile / Manufactured"
        string_val: "Single Family"
        string_val: "Single Family"
        string_val: "Townhouse"
        string_val: "Condo"
        string_val: "Single Family"
        string_val: "Single Family"
        string_val: "Single Family"
        string_val: "Single Family"
        string_val: "Condo"
        string_val: "Condo"
        string_val: "Townhouse"
        string_val: "Single Family"
        string_val: "Single Family"
        string_val: "Single Family"
        string_val: "Single Family"
        string_val: "Mobile / Manufactured"
        string_val: "Single Family"
        string_val: "Single Family"
        string_val: "Single Family"
        string_val: "Single Family"
        string_val: "Single Family"
        string_val: "Single Family"
        string_val: "Single Family"
        string_val: "Condo"
        string_val: "Single Family"
        string_val: "Condo"
        string_val: "Condo"
        string_val: "Single Family"
        string_val: "Condo"
        string_val: "Condo"
        string_val: "Single Family"
        string_val: "Townhouse"
        string_val: "Townhouse"
        string_val: "Single Family"
        string_val: "Single Family"
        string_val: "Condo"
        string_val: "Single Family"
        string_val: "Single Family"
        string_val: "Single Family"
        string_val: "Single Family"
        string_val: "Single Family"
        string_val: "Single Family"
        string_val: "Single Family"
        string_val: "Single Family"
        string_val: "Single Family"
        string_val: "Single Family"
        string_val: "Single Family"
        string_val: "Condo"
        string_val: "Mobile / Manufactured"
        string_val: "Townhouse"
        string_val: "Single Family"
        string_val: "Single Family"
        string_val: "Single Family"
        string_val: "Condo"
        string_val: "Single Family"
        string_val: "Single Family"
        string_val: "Single Family"
        string_val: "Single Family"
        string_val: "Single Family"
        string_val: "Single Family"
        string_val: "Single Family"
        string_val: "Multi Family"
        string_val: "Condo"
        string_val: "Single Family"
        string_val: "Condo"
        string_val: "Single Family"
        string_val: "Single Family"
        string_val: "Single Family"
        string_val: "Condo"
        string_val: "Condo"
        string_val: "Single Family"
        string_val: "Single Family"
        string_val: "Single Family"
        string_val: "Single Family"
        string_val: "Single Family"
        string_val: "Single Family"
        string_val: "Single Family"
        string_val: "Condo"
        string_val: "Single Family"
        string_val: "Single Family"
        string_val: "Townhouse"
        string_val: "Single Family"
        string_val: "Single Family"
        string_val: "Single Family"
        string_val: "Single Family"
        string_val: "Single Family"
        string_val: "Single Family"
        string_val: "Single Family"
        string_val: "Single Family"
        string_val: "Condo"
        string_val: "Single Family"
        string_val: "Single Family"
        string_val: "Single Family"
        string_val: "Single Family"
        string_val: "Condo"
        string_val: "Single Family"
        string_val: "Single Family"
        string_val: "Single Family"
        string_val: "Multi Family"
        string_val: "Single Family"
        string_val: "Single Family"
        string_val: "Single Family"
        string_val: "Single Family"
        string_val: "Single Family"
        string_val: "Single Family"
        string_val: "Single Family"
        string_val: "Single Family"
        string_val: "Single Family"
        string_val: "Condo"
        string_val: "Multi Family"
        string_val: "Single Family"
        string_val: "Mobile / Manufactured"
        string_val: "Single Family"
        string_val: "Condo"
        string_val: "Single Family"
        string_val: "Single Family"
        string_val: "Single Family"
        string_val: "Single Family"
        string_val: "Single Family"
        string_val: "Townhouse"
        string_val: "Single Family"
        string_val: "Single Family"
        string_val: "Single Family"
        string_val: "Condo"
        string_val: "Single Family"
        string_val: "Multi Family"
        string_val: "Single Family"
        string_val: "Single Family"
        string_val: "Condo"
        string_val: "Single Family"
        string_val: "Mobile / Manufactured"
        string_val: "Multi Family"
        string_val: "Single Family"
        string_val: "Single Family"
        string_val: "Single Family"
        string_val: "Single Family"
        string_val: "Single Family"
        string_val: "Single Family"
        string_val: "Mobile / Manufactured"
        string_val: "Single Family"
        string_val: "Single Family"
        string_val: "Single Family"
        string_val: "Single Family"
        string_val: "Multi Family"
        string_val: "Condo"
        string_val: "Condo"
        string_val: "Single Family"
        string_val: "Single Family"
        string_val: "Condo"
        string_val: "Condo"
        string_val: "Condo"
        string_val: "Condo"
        string_val: "Condo"
        string_val: "Single Family"
        string_val: "Single Family"
        string_val: "Single Family"
        string_val: "Single Family"
        string_val: "Single Family"
        string_val: "Single Family"
        string_val: "Single Family"
        string_val: "Single Family"
        string_val: "Single Family"
        string_val: "Single Family"
        string_val: "Single Family"
        string_val: "Single Family"
        string_val: "Single Family"
        string_val: "Single Family"
        string_val: "Single Family"
        string_val: "Single Family"
        string_val: "Single Family"
        string_val: "Single Family"
        string_val: "Condo"
        string_val: "Single Family"
        string_val: "Multi Family"
        string_val: "Other"
        string_val: "Condo"
        string_val: "Mobile / Manufactured"
        string_val: "Condo"
        string_val: "Mobile / Manufactured"
        string_val: "Single Family"
        string_val: "Single Family"
        string_val: "Condo"
        string_val: "Single Family"
        string_val: "Condo"
        string_val: "Other"
        string_val: "Single Family"
        string_val: "Single Family"
        string_val: "Single Family"
        string_val: "Single Family"
        string_val: "Single Family"
        string_val: "Single Family"
        string_val: "Single Family"
        string_val: "Mobile / Manufactured"
        string_val: "Single Family"
        string_val: "Single Family"
        string_val: "Condo"
        string_val: "Single Family"
        string_val: "Single Family"
        string_val: "Single Family"
        string_val: "Single Family"
        string_val: "Single Family"
        string_val: "Multi Family"
        string_val: "Mobile / Manufactured"
        string_val: "Single Family"
        string_val: "Single Family"
        string_val: "Single Family"
        string_val: "Multi Family"
        string_val: "Condo"
        string_val: "Multi Family"
        string_val: "Single Family"
        string_val: "Single Family"
        string_val: "Single Family"
        string_val: "Single Family"
        string_val: "Single Family"
        string_val: "Condo"
        string_val: "Mobile / Manufactured"
        string_val: "Mobile / Manufactured"
        string_val: "Single Family"
        string_val: "Single Family"
        string_val: "Condo"
        string_val: "Single Family"
        string_val: "Mobile / Manufactured"
        string_val: "Single Family"
        string_val: "Condo"
        string_val: "Condo"
        string_val: "Mobile / Manufactured"
        string_val: "Single Family"
        string_val: "Multi Family"
        string_val: "Single Family"
        string_val: "Single Family"
        string_val: "Single Family"
        string_val: "Single Family"
        string_val: "Mobile / Manufactured"
        string_val: "Condo"
        string_val: "Condo"
        string_val: "Multi Family"
        string_val: "Single Family"
        string_val: "Condo"
        string_val: "Single Family"
        string_val: "Single Family"
        string_val: "Multi Family"
        string_val: "Single Family"
        string_val: "Single Family"
        string_val: "Single Family"
        string_val: "Single Family"
        string_val: "Single Family"
        string_val: "Single Family"
        string_val: "Single Family"
        string_val: "Single Family"
        string_val: "Single Family"
        string_val: "Mobile / Manufactured"
        string_val: "Single Family"
        string_val: "Single Family"
        string_val: "Mobile / Manufactured"
        string_val: "Single Family"
        string_val: "Condo"
        string_val: "Multi Family"
        string_val: "Condo"
        string_val: "Single Family"
        string_val: "Single Family"
        string_val: "Single Family"
        string_val: "Single Family"
        string_val: "Condo"
        string_val: "Single Family"
        string_val: "Single Family"
        string_val: "Single Family"
        string_val: "Single Family"
        string_val: "Single Family"
        string_val: "Single Family"
        string_val: "Single Family"
        string_val: "Condo"
        string_val: "Single Family"
        string_val: "Townhouse"
        string_val: "Single Family"
        string_val: "Single Family"
        string_val: "Townhouse"
        string_val: "Condo"
        string_val: "Single Family"
        string_val: "Single Family"
        string_val: "Single Family"
        string_val: "Single Family"
        string_val: "Single Family"
        string_val: "Condo"
        string_val: "Condo"
        string_val: "Single Family"
        string_val: "Single Family"
        string_val: "Single Family"
        string_val: "Single Family"
        string_val: "Condo"
        string_val: "Single Family"
        string_val: "Single Family"
        string_val: "Single Family"
        string_val: "Single Family"
        string_val: "Single Family"
        string_val: "Single Family"
        string_val: "Multi Family"
        string_val: "Single Family"
        string_val: "Single Family"
        string_val: "Townhouse"
        string_val: "Single Family"
        string_val: "Single Family"
        string_val: "Multi Family"
        string_val: "Single Family"
        string_val: "Condo"
        string_val: "Single Family"
        string_val: "Single Family"
        string_val: "Multi Family"
        string_val: "Condo"
        string_val: "Condo"
        string_val: "Single Family"
        string_val: "Single Family"
        string_val: "Condo"
        string_val: "Single Family"
        string_val: "Single Family"
        string_val: "Condo"
        string_val: "Single Family"
        string_val: "Single Family"
        string_val: "Single Family"
        string_val: "Single Family"
        string_val: "Single Family"
        string_val: "Single Family"
        string_val: "Single Family"
        string_val: "Single Family"
        string_val: "Single Family"
        string_val: "Single Family"
        string_val: "Townhouse"
        string_val: "Single Family"
        string_val: "Single Family"
        string_val: "Single Family"
        string_val: "Single Family"
        string_val: "Single Family"
        string_val: "Single Family"
        string_val: "Mobile / Manufactured"
        string_val: "Single Family"
        string_val: "Townhouse"
        string_val: "Single Family"
        string_val: "Single Family"
        string_val: "Single Family"
        string_val: "Single Family"
        string_val: "Single Family"
        string_val: "Single Family"
        string_val: "Condo"
        string_val: "Single Family"
        string_val: "Single Family"
        string_val: "Single Family"
        string_val: "Single Family"
        string_val: "Single Family"
        string_val: "Multi Family"
        string_val: "Single Family"
        string_val: "Single Family"
        string_val: "Single Family"
        string_val: "Single Family"
        string_val: "Condo"
        string_val: "Single Family"
        string_val: "Condo"
        string_val: "Condo"
        string_val: "Condo"
        string_val: "Single Family"
        string_val: "Mobile / Manufactured"
        string_val: "Townhouse"
        string_val: "Single Family"
        string_val: "Single Family"
        string_val: "Single Family"
        string_val: "Single Family"
        string_val: "Condo"
        string_val: "Condo"
        string_val: "Mobile / Manufactured"
        string_val: "Single Family"
        string_val: "Single Family"
        string_val: "Single Family"
        string_val: "Single Family"
        string_val: "Single Family"
        string_val: "Single Family"
        string_val: "Single Family"
        string_val: "Single Family"
        string_val: "Single Family"
        string_val: "Single Family"
        string_val: "Single Family"
        string_val: "Single Family"
        string_val: "Condo"
        string_val: "Condo"
        string_val: "Single Family"
        string_val: "Single Family"
        string_val: "Single Family"
        string_val: "Townhouse"
        string_val: "Single Family"
        string_val: "Single Family"
        string_val: "Single Family"
        string_val: "Condo"
        string_val: "Single Family"
        string_val: "Condo"
        string_val: "Single Family"
        string_val: "Condo"
        string_val: "Condo"
        string_val: "Single Family"
        string_val: "Single Family"
        string_val: "Mobile / Manufactured"
        string_val: "Single Family"
        string_val: "Townhouse"
        string_val: "Single Family"
        string_val: "Single Family"
        string_val: "Single Family"
        string_val: "Single Family"
        string_val: "Single Family"
        string_val: "Single Family"
        string_val: "Single Family"
        string_val: "Single Family"
        string_val: "Condo"
        string_val: "Single Family"
        string_val: "Single Family"
        string_val: "Single Family"
        string_val: "Multi Family"
        string_val: "Single Family"
        string_val: "Single Family"
        string_val: "Single Family"
        string_val: "Single Family"
        string_val: "Condo"
        string_val: "Mobile / Manufactured"
        string_val: "Condo"
        string_val: "Single Family"
        string_val: "Single Family"
        string_val: "Single Family"
        string_val: "Single Family"
        string_val: "Condo"
        string_val: "Single Family"
        string_val: "Single Family"
        string_val: "Single Family"
        string_val: "Single Family"
        string_val: "Single Family"
        string_val: "Mobile / Manufactured"
        string_val: "Single Family"
        string_val: "Single Family"
        string_val: "Single Family"
        string_val: "Single Family"
        string_val: "Single Family"
        string_val: "Condo"
        string_val: "Single Family"
        string_val: "Condo"
        string_val: "Single Family"
        string_val: "Single Family"
        string_val: "Mobile / Manufactured"
        string_val: "Single Family"
        string_val: "Single Family"
        string_val: "Condo"
        string_val: "Single Family"
        string_val: "Single Family"
        string_val: "Condo"
        string_val: "Single Family"
        string_val: "Mobile / Manufactured"
        string_val: "Condo"
        string_val: "Single Family"
        string_val: "Single Family"
        string_val: "Single Family"
        string_val: "Single Family"
        string_val: "Condo"
        string_val: "Single Family"
        string_val: "Single Family"
        string_val: "Single Family"
        string_val: "Multi Family"
        string_val: "Condo"
        string_val: "Single Family"
        string_val: "Townhouse"
        string_val: "Condo"
        string_val: "Single Family"
        string_val: "Single Family"
        string_val: "Condo"
        string_val: "Single Family"
        string_val: "Single Family"
        string_val: "Single Family"
        string_val: "Single Family"
        string_val: "Single Family"
        string_val: "Multi Family"
        string_val: "Single Family"
        string_val: "Single Family"
        string_val: "Single Family"
        string_val: "Condo"
        string_val: "Single Family"
        string_val: "Single Family"
        string_val: "Condo"
        string_val: "Condo"
        string_val: "Single Family"
        string_val: "Single Family"
        string_val: "Single Family"
        string_val: "Single Family"
        string_val: "Single Family"
        string_val: "Condo"
        string_val: "Single Family"
        string_val: "Single Family"
        string_val: "Townhouse"
        string_val: "Single Family"
        string_val: "Condo"
        string_val: "Condo"
        string_val: "Single Family"
        string_val: "Single Family"
        string_val: "Condo"
        string_val: "Townhouse"
        string_val: "Condo"
        string_val: "Single Family"
        string_val: "Single Family"
        string_val: "Single Family"
        string_val: "Condo"
        string_val: "Single Family"
        string_val: "Condo"
        string_val: "Single Family"
        string_val: "Single Family"
        string_val: "Condo"
        string_val: "Condo"
        string_val: "Single Family"
        string_val: "Condo"
        string_val: "Cooperative"
        string_val: "Single Family"
        string_val: "Single Family"
        string_val: "Single Family"
        string_val: "Single Family"
        string_val: "Single Family"
        string_val: "Single Family"
        string_val: "Single Family"
        string_val: "Single Family"
        string_val: "Single Family"
        string_val: "Condo"
        string_val: "Condo"
        string_val: "Single Family"
        string_val: "Single Family"
        string_val: "Single Family"
        string_val: "Multi Family"
        string_val: "Single Family"
        string_val: "Condo"
        string_val: "Single Family"
        string_val: "Apartment"
        string_val: "Multi Family"
        string_val: "Single Family"
        string_val: "Condo"
        string_val: "Single Family"
        string_val: "Single Family"
        string_val: "Multi Family"
        string_val: "Single Family"
        string_val: "Single Family"
        string_val: "Single Family"
        string_val: "Single Family"
        string_val: "Condo"
        string_val: "Single Family"
        string_val: "Single Family"
        string_val: "Single Family"
        string_val: "Single Family"
        string_val: "Condo"
        string_val: "Single Family"
        string_val: "Single Family"
        string_val: "Single Family"
        string_val: "Single Family"
        string_val: "Single Family"
        string_val: "Single Family"
        string_val: "Single Family"
        string_val: "Single Family"
        string_val: "Single Family"
        string_val: "Single Family"
        string_val: "Single Family"
        string_val: "Single Family"
        string_val: "Single Family"
        string_val: "Single Family"
        string_val: "Single Family"
        string_val: "Single Family"
        string_val: "Single Family"
        string_val: "Single Family"
        string_val: "Single Family"
        string_val: "Single Family"
        string_val: "Condo"
        string_val: "Single Family"
        string_val: "Single Family"
        string_val: "Condo"
        string_val: "Single Family"
        string_val: "Single Family"
        string_val: "Single Family"
        string_val: "Single Family"
        string_val: "Condo"
        string_val: "Single Family"
        string_val: "Mobile / Manufactured"
        string_val: "Condo"
        string_val: "Single Family"
        string_val: "Single Family"
        string_val: "Single Family"
        string_val: "Single Family"
        string_val: "Single Family"
        string_val: "Single Family"
        string_val: "Single Family"
        string_val: "Single Family"
        string_val: "Single Family"
        string_val: "Single Family"
        string_val: "Single Family"
        string_val: "Single Family"
        string_val: "Single Family"
        string_val: "Single Family"
        string_val: "Single Family"
        string_val: "Townhouse"
        string_val: "Cooperative"
        string_val: "Multi Family"
        string_val: "Single Family"
        string_val: "Mobile / Manufactured"
        string_val: "Single Family"
        string_val: "Single Family"
        string_val: "Mobile / Manufactured"
        string_val: "Single Family"
        string_val: "Single Family"
        string_val: "Single Family"
        string_val: "Single Family"
        string_val: "Condo"
        string_val: "Single Family"
        string_val: "Single Family"
        string_val: "Townhouse"
        string_val: "Single Family"
        string_val: "Single Family"
        string_val: "Single Family"
        string_val: "Single Family"
        string_val: "Single Family"
        string_val: "Condo"
        string_val: "Single Family"
        string_val: "Single Family"
        string_val: "Single Family"
        string_val: "Single Family"
        string_val: "Single Family"
        string_val: "Single Family"
        string_val: "Single Family"
        string_val: "Single Family"
        string_val: "Single Family"
        string_val: "Single Family"
        string_val: "Single Family"
        string_val: "Single Family"
        string_val: "Single Family"
        string_val: "Single Family"
        string_val: "Single Family"
        string_val: "Single Family"
        string_val: "Single Family"
        string_val: "Single Family"
        string_val: "Single Family"
        string_val: "Single Family"
        string_val: "Mobile / Manufactured"
        string_val: "Single Family"
        string_val: "Single Family"
        string_val: "Multi Family"
        string_val: "Single Family"
        string_val: "Single Family"
        string_val: "Multi Family"
        string_val: "Condo"
        string_val: "Single Family"
        string_val: "Single Family"
        string_val: "Single Family"
        string_val: "Condo"
        string_val: "Single Family"
        string_val: "Single Family"
        string_val: "Single Family"
        string_val: "Single Family"
        string_val: "Single Family"
        string_val: "Single Family"
        string_val: "Multi Family"
        string_val: "Multi Family"
        string_val: "Single Family"
        string_val: "Single Family"
        string_val: "Single Family"
        string_val: "Single Family"
        string_val: "Single Family"
        string_val: "Single Family"
        string_val: "Single Family"
        string_val: "Single Family"
        string_val: "Single Family"
        string_val: "Single Family"
        string_val: "Mobile / Manufactured"
        string_val: "Single Family"
        string_val: "Single Family"
        string_val: "Single Family"
        string_val: "Single Family"
        string_val: "Single Family"
        string_val: "Condo"
        string_val: "Single Family"
        string_val: "Single Family"
        string_val: "Single Family"
        string_val: "Condo"
        string_val: "Condo"
        string_val: "Single Family"
        string_val: "Single Family"
        string_val: "Single Family"
        string_val: "Condo"
        string_val: "Mobile / Manufactured"
        string_val: "Single Family"
        string_val: "Condo"
        string_val: "Single Family"
        string_val: "Single Family"
        string_val: "Single Family"
        string_val: "Single Family"
        string_val: "Single Family"
        string_val: "Single Family"
        string_val: "Single Family"
        string_val: "Single Family"
        string_val: "Multi Family"
        string_val: "Single Family"
        string_val: "Single Family"
        string_val: "Single Family"
        string_val: "Single Family"
        string_val: "Condo"
        string_val: "Single Family"
        string_val: "Condo"
        string_val: "Single Family"
        string_val: "Single Family"
        string_val: "Condo"
        string_val: "Single Family"
        string_val: "Single Family"
        string_val: "Single Family"
        string_val: "Single Family"
        string_val: "Single Family"
        string_val: "Condo"
        string_val: "Single Family"
        string_val: "Single Family"
        string_val: "Condo"
        string_val: "Single Family"
        string_val: "Single Family"
        string_val: "Single Family"
        string_val: "Single Family"
        string_val: "Single Family"
        string_val: "Single Family"
        string_val: "Single Family"
        string_val: "Single Family"
        string_val: "Single Family"
        string_val: "Condo"
        string_val: "Single Family"
        string_val: "Condo"
        string_val: "Single Family"
        string_val: "Single Family"
        string_val: "Single Family"
        string_val: "Condo"
        string_val: "Single Family"
        string_val: "Single Family"
        string_val: "Condo"
        string_val: "Multi Family"
        string_val: "Single Family"
        string_val: "Single Family"
        string_val: "Single Family"
        string_val: "Single Family"
        string_val: "Single Family"
        string_val: "Multi Family"
        string_val: "Single Family"
        string_val: "Single Family"
        string_val: "Mobile / Manufactured"
        string_val: "Single Family"
        string_val: "Single Family"
        string_val: "Townhouse"
        string_val: "Single Family"
        string_val: "Single Family"
        string_val: "Single Family"
        string_val: "Multi Family"
        string_val: "Single Family"
        string_val: "Single Family"
        string_val: "Single Family"
        string_val: "Multi Family"
        string_val: "Single Family"
        string_val: "Single Family"
        string_val: "Single Family"
        string_val: "Single Family"
        string_val: "Single Family"
        string_val: "Multi Family"
        string_val: "Single Family"
        string_val: "Single Family"
        string_val: "Single Family"
        string_val: "Single Family"
        string_val: "Single Family"
        string_val: "Single Family"
        string_val: "Single Family"
        string_val: "Mobile / Manufactured"
        string_val: "Single Family"
        string_val: "Single Family"
        string_val: "Single Family"
        string_val: "Single Family"
        string_val: "Single Family"
        string_val: "Single Family"
        string_val: "Multi Family"
        string_val: "Single Family"
        string_val: "Condo"
        string_val: "Single Family"
        string_val: "Single Family"
        string_val: "Single Family"
        string_val: "Single Family"
        string_val: "Single Family"
        string_val: "Single Family"
        string_val: "Single Family"
        string_val: "Single Family"
        string_val: "Single Family"
        string_val: "Single Family"
        string_val: "Condo"
        string_val: "Condo"
        string_val: "Single Family"
        string_val: "Single Family"
        string_val: "Single Family"
        string_val: "Condo"
        string_val: "Single Family"
        string_val: "Single Family"
        string_val: "Condo"
        string_val: "Single Family"
        string_val: "Single Family"
        string_val: "Multi Family"
        string_val: "Single Family"
        string_val: "Condo"
        string_val: "Single Family"
        string_val: "Single Family"
        string_val: "Single Family"
        string_val: "Single Family"
        string_val: "Single Family"
        string_val: "Single Family"
        string_val: "Condo"
        string_val: "Single Family"
        string_val: "Mobile / Manufactured"
        string_val: "Single Family"
        string_val: "Condo"
        string_val: "Single Family"
        string_val: "Single Family"
        string_val: "Condo"
        string_val: "Single Family"
        string_val: "Single Family"
        string_val: "Single Family"
        string_val: "Single Family"
        string_val: "Single Family"
        string_val: "Single Family"
        string_val: "Single Family"
        string_val: "Single Family"
        string_val: "Condo"
        string_val: "Single Family"
        string_val: "Single Family"
        string_val: "Single Family"
        string_val: "Condo"
        string_val: "Single Family"
        string_val: "Single Family"
        string_val: "Single Family"
        string_val: "Single Family"
        string_val: "Single Family"
        string_val: "Single Family"
        string_val: "Single Family"
        string_val: "Townhouse"
        string_val: "Single Family"
        string_val: "Condo"
        string_val: "Single Family"
        string_val: "Single Family"
        string_val: "Single Family"
        string_val: "Single Family"
        string_val: "Single Family"
        string_val: "Single Family"
        string_val: "Multi Family"
        string_val: "Single Family"
        string_val: "Single Family"
        string_val: "Single Family"
        string_val: "Condo"
        string_val: "Townhouse"
        string_val: "Single Family"
        string_val: "Townhouse"
        string_val: "Multi Family"
        string_val: "Condo"
        string_val: "Condo"
        string_val: "Condo"
        string_val: "Mobile / Manufactured"
        string_val: "Single Family"
        string_val: "Single Family"
        string_val: "Single Family"
        string_val: "Single Family"
        string_val: "Single Family"
        string_val: "Single Family"
        string_val: "Single Family"
        string_val: "Single Family"
        string_val: "Single Family"
        string_val: "Single Family"
        string_val: "Single Family"
        string_val: "Single Family"
        string_val: "Single Family"
        string_val: "Single Family"
        string_val: "Mobile / Manufactured"
        string_val: "Single Family"
        string_val: "Single Family"
        string_val: "Single Family"
        string_val: "Single Family"
        string_val: "Multi Family"
        string_val: "Multi Family"
        string_val: "Single Family"
        string_val: "Condo"
        string_val: "Condo"
        string_val: "Single Family"
        string_val: "Condo"
        string_val: "Single Family"
        string_val: "Single Family"
        string_val: "Mobile / Manufactured"
        string_val: "Single Family"
        string_val: "Single Family"
        string_val: "Single Family"
        string_val: "Single Family"
        string_val: "Single Family"
        string_val: "Condo"
        string_val: "Single Family"
        string_val: "Single Family"
        string_val: "Single Family"
        string_val: "Single Family"
        string_val: "Single Family"
        string_val: "Single Family"
        string_val: "Single Family"
        string_val: "Multi Family"
        string_val: "Single Family"
        string_val: "Single Family"
        string_val: "Single Family"
        string_val: "Single Family"
        string_val: "Single Family"
        string_val: "Single Family"
        string_val: "Condo"
        string_val: "Single Family"
        string_val: "Single Family"
        string_val: "Condo"
        string_val: "Single Family"
        string_val: "Single Family"
        string_val: "Single Family"
        string_val: "Single Family"
        string_val: "Single Family"
        string_val: "Single Family"
        string_val: "Single Family"
        string_val: "Single Family"
        string_val: "Single Family"
        string_val: "Condo"
        string_val: "Condo"
        string_val: "Condo"
        string_val: "Single Family"
        string_val: "Single Family"
        string_val: "Condo"
        string_val: "Single Family"
        string_val: "Single Family"
        string_val: "Single Family"
        string_val: "Single Family"
        string_val: "Single Family"
        string_val: "Single Family"
        string_val: "Single Family"
        string_val: "Single Family"
        string_val: "Single Family"
        string_val: "Single Family"
        string_val: "Single Family"
        string_val: "Single Family"
        string_val: "Single Family"
        string_val: "Condo"
        string_val: "Condo"
        string_val: "Single Family"
        string_val: "Single Family"
        string_val: "Multi Family"
        string_val: "Single Family"
        string_val: "Single Family"
        string_val: "Condo"
        string_val: "Mobile / Manufactured"
        string_val: "Single Family"
        string_val: "Single Family"
        string_val: "Multi Family"
        string_val: "Single Family"
        string_val: "Condo"
        string_val: "Single Family"
        string_val: "Townhouse"
        string_val: "Condo"
        string_val: "Miscellaneous"
        string_val: "Single Family"
        string_val: "Single Family"
…
        }
      }
    }
  }
  attr {
    key: "dtype"
    value {
      type: DT_INT32
    }
  }
  attr {
    key: "value"
    value {
      tensor {
        dtype: DT_INT32
        tensor_shape {
        }
        int_val: 0
      }
    }
  }
}
node {
  name: "save/ShardedFilename"
  op: "ShardedFilename"
  input: "save/Const"
  input: "save/ShardedFilename/shard"
  input: "save/num_shards"
  attr {
    key: "_output_shapes"
    value {
      list {
        shape {
        }
      }
    }
  }
}
node {
  name: "save/save/tensor_names"
  op: "Const"
  attr {
    key: "_output_shapes"
    value {
      list {
        shape {
          dim {
            size: 23
          }
        }
      }
    }
  }
  attr {
    key: "dtype"
    value {
      type: DT_STRING
    }
  }
  attr {
    key: "value"
    value {
      tensor {
        dtype: DT_STRING
        tensor_shape {
          dim {
            size: 23
          }
        }
        string_val: "beta1_power"
        string_val: "beta2_power"
        string_val: "centered_bias_weight"
        string_val: "centered_bias_weight/Adagrad"
        string_val: "global_step"
        string_val: "linear/bathroom/weight"
        string_val: "linear/bathroom/weight/Adam"
        string_val: "linear/bathroom/weight/Adam_1"
        string_val: "linear/bedroom/weight"
        string_val: "linear/bedroom/weight/Adam"
        string_val: "linear/bedroom/weight/Adam_1"
        string_val: "linear/bias_weight"
        string_val: "linear/bias_weight/Adam"
        string_val: "linear/bias_weight/Adam_1"
        string_val: "linear/property_type/weights"
        string_val: "linear/property_type/weights/Adam"
        string_val: "linear/property_type/weights/Adam_1"
        string_val: "linear/size_bucketized/weights"
        string_val: "linear/size_bucketized/weights/Adam"
        string_val: "linear/size_bucketized/weights/Adam_1"
        string_val: "linear/zipcode/weights"
        string_val: "linear/zipcode/weights/Adam"
        string_val: "linear/zipcode/weights/Adam_1"
      }
    }
  }
}
node {
  name: "save/save/shapes_and_slices"
  op: "Const"
  attr {
    key: "_output_shapes"
    value {
      list {
        shape {
          dim {
            size: 23
          }
        }
      }
    }
  }
  attr {
    key: "dtype"
    value {
      type: DT_STRING
    }
  }
  attr {
    key: "value"
    value {
      tensor {
        dtype: DT_STRING
        tensor_shape {
          dim {
            size: 23
          }
        }
        string_val: ""
        string_val: ""
        string_val: ""
        string_val: ""
        string_val: ""
        string_val: "1 1 0,1:0,1"
        string_val: "1 1 0,1:0,1"
        string_val: "1 1 0,1:0,1"
        string_val: "1 1 0,1:0,1"
        string_val: "1 1 0,1:0,1"
        string_val: "1 1 0,1:0,1"
        string_val: "1 0,1"
        string_val: "1 0,1"
        string_val: "1 0,1"
        string_val: "100 1 0,100:0,1"
        string_val: "100 1 0,100:0,1"
        string_val: "100 1 0,100:0,1"
        string_val: "31 1 0,31:0,1"
        string_val: "31 1 0,31:0,1"
        string_val: "31 1 0,31:0,1"
        string_val: "1000 1 0,1000:0,1"
        string_val: "1000 1 0,1000:0,1"
        string_val: "1000 1 0,1000:0,1"
      }
    }
  }
}
node {
  name: "save/save"
  op: "SaveSlices"
  input: "save/ShardedFilename"
  input: "save/save/tensor_names"
  input: "save/save/shapes_and_slices"
  input: "beta1_power"
  input: "beta2_power"
  input: "centered_bias_weight"
  input: "centered_bias_weight/Adagrad"
  input: "global_step"
  input: "linear/bathroom/weight/part_0/read"
  input: "linear/bathroom/weight/part_0/Adam/read"
  input: "linear/bathroom/weight/part_0/Adam_1/read"
  input: "linear/bedroom/weight/part_0/read"
  input: "linear/bedroom/weight/part_0/Adam/read"
  input: "linear/bedroom/weight/part_0/Adam_1/read"
  input: "linear/bias_weight/part_0/read"
  input: "linear/bias_weight/part_0/Adam/read"
  input: "linear/bias_weight/part_0/Adam_1/read"
  input: "linear/property_type/weights/part_0/read"
  input: "linear/property_type/weights/part_0/Adam/read"
  input: "linear/property_type/weights/part_0/Adam_1/read"
  input: "linear/size_bucketized/weights/part_0/read"
  input: "linear/size_bucketized/weights/part_0/Adam/read"
  input: "linear/size_bucketized/weights/part_0/Adam_1/read"
  input: "linear/zipcode/weights/part_0/read"
  input: "linear/zipcode/weights/part_0/Adam/read"
  input: "linear/zipcode/weights/part_0/Adam_1/read"
  attr {
    key: "T"
    value {
      list {
        type: DT_FLOAT
        type: DT_FLOAT
        type: DT_FLOAT
        type: DT_FLOAT
        type: DT_INT64
        type: DT_FLOAT
        type: DT_FLOAT
        type: DT_FLOAT
        type: DT_FLOAT
        type: DT_FLOAT
        type: DT_FLOAT
        type: DT_FLOAT
        type: DT_FLOAT
        type: DT_FLOAT
        type: DT_FLOAT
        type: DT_FLOAT
        type: DT_FLOAT
        type: DT_FLOAT
        type: DT_FLOAT
        type: DT_FLOAT
        type: DT_FLOAT
        type: DT_FLOAT
        type: DT_FLOAT
      }
    }
  }
}
node {
  name: "save/control_dependency"
  op: "Identity"
  input: "save/ShardedFilename"
  input: "^save/save"
  attr {
    key: "T"
    value {
      type: DT_STRING
    }
  }
  attr {
    key: "_class"
    value {
      list {
        s: "loc:@save/ShardedFilename"
      }
    }
  }
  attr {
    key: "_output_shapes"
    value {
      list {
        shape {
        }
      }
    }
  }
}
node {
  name: "save/ShardedFilespec"
  op: "ShardedFilespec"
  input: "save/Const"
  input: "save/num_shards"
  input: "^save/control_dependency"
  attr {
    key: "_output_shapes"
    value {
      list {
        shape {
        }
      }
    }
  }
}
node {
  name: "save/restore_slice/tensor_name"
  op: "Const"
  attr {
    key: "_output_shapes"
    value {
      list {
        shape {
        }
      }
    }
  }
  attr {
    key: "dtype"
    value {
      type: DT_STRING
    }
  }
  attr {
    key: "value"
    value {
      tensor {
        dtype: DT_STRING
        tensor_shape {
        }
        string_val: "beta1_power"
      }
    }
  }
}
node {
  name: "save/restore_slice/shape_and_slice"
  op: "Const"
  attr {
    key: "_output_shapes"
    value {
      list {
        shape {
        }
      }
    }
  }
  attr {
    key: "dtype"
    value {
      type: DT_STRING
    }
  }
  attr {
    key: "value"
    value {
      tensor {
        dtype: DT_STRING
        tensor_shape {
        }
        string_val: ""
      }
    }
  }
}
node {
  name: "save/restore_slice"
  op: "RestoreSlice"
  input: "save/Const"
  input: "save/restore_slice/tensor_name"
  input: "save/restore_slice/shape_and_slice"
  attr {
    key: "_output_shapes"
    value {
      list {
        shape {
          unknown_rank: true
        }
      }
    }
  }
  attr {
    key: "dt"
    value {
      type: DT_FLOAT
    }
  }
  attr {
    key: "preferred_shard"
    value {
      i: 0
    }
  }
}
node {
  name: "save/Assign"
  op: "Assign"
  input: "beta1_power"
  input: "save/restore_slice"
  attr {
    key: "T"
    value {
      type: DT_FLOAT
    }
  }
  attr {
    key: "_class"
    value {
      list {
        s: "loc:@linear/size_bucketized/weights/part_0"
      }
    }
  }
  attr {
    key: "_output_shapes"
    value {
      list {
        shape {
        }
      }
    }
  }
  attr {
    key: "use_locking"
    value {
      b: true
    }
  }
  attr {
    key: "validate_shape"
    value {
      b: true
    }
  }
}
node {
  name: "save/restore_slice_1/tensor_name"
  op: "Const"
  attr {
    key: "_output_shapes"
    value {
      list {
        shape {
        }
      }
    }
  }
  attr {
    key: "dtype"
    value {
      type: DT_STRING
    }
  }
  attr {
    key: "value"
    value {
      tensor {
        dtype: DT_STRING
        tensor_shape {
        }
        string_val: "beta2_power"
      }
    }
  }
}
node {
  name: "save/restore_slice_1/shape_and_slice"
  op: "Const"
  attr {
    key: "_output_shapes"
    value {
      list {
        shape {
        }
      }
    }
  }
  attr {
    key: "dtype"
    value {
      type: DT_STRING
    }
  }
  attr {
    key: "value"
    value {
      tensor {
        dtype: DT_STRING
        tensor_shape {
        }
        string_val: ""
      }
    }
  }
}
node {
  name: "save/restore_slice_1"
  op: "RestoreSlice"
  input: "save/Const"
  input: "save/restore_slice_1/tensor_name"
  input: "save/restore_slice_1/shape_and_slice"
  attr {
    key: "_output_shapes"
    value {
      list {
        shape {
          unknown_rank: true
        }
      }
    }
  }
  attr {
    key: "dt"
    value {
      type: DT_FLOAT
    }
  }
  attr {
    key: "preferred_shard"
    value {
      i: 0
    }
  }
}
node {
  name: "save/Assign_1"
  op: "Assign"
  input: "beta2_power"
  input: "save/restore_slice_1"
  attr {
    key: "T"
    value {
      type: DT_FLOAT
    }
  }
  attr {
    key: "_class"
    value {
      list {
        s: "loc:@linear/size_bucketized/weights/part_0"
      }
    }
  }
  attr {
    key: "_output_shapes"
    value {
      list {
        shape {
        }
      }
    }
  }
  attr {
    key: "use_locking"
    value {
      b: true
    }
  }
  attr {
    key: "validate_shape"
    value {
      b: true
    }
  }
}
node {
  name: "save/restore_slice_2/tensor_name"
  op: "Const"
  attr {
    key: "_output_shapes"
    value {
      list {
        shape {
        }
      }
    }
  }
  attr {
    key: "dtype"
    value {
      type: DT_STRING
    }
  }
  attr {
    key: "value"
    value {
      tensor {
        dtype: DT_STRING
        tensor_shape {
        }
        string_val: "centered_bias_weight"
      }
    }
  }
}
node {
  name: "save/restore_slice_2/shape_and_slice"
  op: "Const"
  attr {
    key: "_output_shapes"
    value {
      list {
        shape {
        }
      }
    }
  }
  attr {
    key: "dtype"
    value {
      type: DT_STRING
    }
  }
  attr {
    key: "value"
    value {
      tensor {
        dtype: DT_STRING
        tensor_shape {
        }
        string_val: ""
      }
    }
  }
}
node {
  name: "save/restore_slice_2"
  op: "RestoreSlice"
  input: "save/Const"
  input: "save/restore_slice_2/tensor_name"
  input: "save/restore_slice_2/shape_and_slice"
  attr {
    key: "_output_shapes"
    value {
      list {
        shape {
          unknown_rank: true
        }
      }
    }
  }
  attr {
    key: "dt"
    value {
      type: DT_FLOAT
    }
  }
  attr {
    key: "preferred_shard"
    value {
      i: 0
    }
  }
}
node {
  name: "save/Assign_2"
  op: "Assign"
  input: "centered_bias_weight"
  input: "save/restore_slice_2"
  attr {
    key: "T"
    value {
      type: DT_FLOAT
    }
  }
  attr {
    key: "_class"
    value {
      list {
        s: "loc:@centered_bias_weight"
      }
    }
  }
  attr {
    key: "_output_shapes"
    value {
      list {
        shape {
          dim {
            size: 1
          }
        }
      }
    }
  }
  attr {
    key: "use_locking"
    value {
      b: true
    }
  }
  attr {
    key: "validate_shape"
    value {
      b: true
    }
  }
}
node {
  name: "save/restore_slice_3/tensor_name"
  op: "Const"
  attr {
    key: "_output_shapes"
    value {
      list {
        shape {
        }
      }
    }
  }
  attr {
    key: "dtype"
    value {
      type: DT_STRING
    }
  }
  attr {
    key: "value"
    value {
      tensor {
        dtype: DT_STRING
        tensor_shape {
        }
        string_val: "centered_bias_weight/Adagrad"
      }
    }
  }
}
node {
  name: "save/restore_slice_3/shape_and_slice"
  op: "Const"
  attr {
    key: "_output_shapes"
    value {
      list {
        shape {
        }
      }
    }
  }
  attr {
    key: "dtype"
    value {
      type: DT_STRING
    }
  }
  attr {
    key: "value"
    value {
      tensor {
        dtype: DT_STRING
        tensor_shape {
        }
        string_val: ""
      }
    }
  }
}
node {
  name: "save/restore_slice_3"
  op: "RestoreSlice"
  input: "save/Const"
  input: "save/restore_slice_3/tensor_name"
  input: "save/restore_slice_3/shape_and_slice"
  attr {
    key: "_output_shapes"
    value {
      list {
        shape {
          unknown_rank: true
        }
      }
    }
  }
  attr {
    key: "dt"
    value {
      type: DT_FLOAT
    }
  }
  attr {
    key: "preferred_shard"
    value {
      i: 0
    }
  }
}
node {
  name: "save/Assign_3"
  op: "Assign"
  input: "centered_bias_weight/Adagrad"
  input: "save/restore_slice_3"
  attr {
    key: "T"
    value {
      type: DT_FLOAT
    }
  }
  attr {
    key: "_class"
    value {
      list {
        s: "loc:@centered_bias_weight"
      }
    }
  }
  attr {
    key: "_output_shapes"
    value {
      list {
        shape {
          dim {
            size: 1
          }
        }
      }
    }
  }
  attr {
    key: "use_locking"
    value {
      b: true
    }
  }
  attr {
    key: "validate_shape"
    value {
      b: true
    }
  }
}
node {
  name: "save/restore_slice_4/tensor_name"
  op: "Const"
  attr {
    key: "_output_shapes"
    value {
      list {
        shape {
        }
      }
    }
  }
  attr {
    key: "dtype"
    value {
      type: DT_STRING
    }
  }
  attr {
    key: "value"
    value {
      tensor {
        dtype: DT_STRING
        tensor_shape {
        }
        string_val: "global_step"
      }
    }
  }
}
node {
  name: "save/restore_slice_4/shape_and_slice"
  op: "Const"
  attr {
    key: "_output_shapes"
    value {
      list {
        shape {
        }
      }
    }
  }
  attr {
    key: "dtype"
    value {
      type: DT_STRING
    }
  }
  attr {
    key: "value"
    value {
      tensor {
        dtype: DT_STRING
        tensor_shape {
        }
        string_val: ""
      }
    }
  }
}
node {
  name: "save/restore_slice_4"
  op: "RestoreSlice"
  input: "save/Const"
  input: "save/restore_slice_4/tensor_name"
  input: "save/restore_slice_4/shape_and_slice"
  attr {
    key: "_output_shapes"
    value {
      list {
        shape {
          unknown_rank: true
        }
      }
    }
  }
  attr {
    key: "dt"
    value {
      type: DT_INT64
    }
  }
  attr {
    key: "preferred_shard"
    value {
      i: 0
    }
  }
}
node {
  name: "save/Assign_4"
  op: "Assign"
  input: "global_step"
  input: "save/restore_slice_4"
  attr {
    key: "T"
    value {
      type: DT_INT64
    }
  }
  attr {
    key: "_class"
    value {
      list {
        s: "loc:@global_step"
      }
    }
  }
  attr {
    key: "_output_shapes"
    value {
      list {
        shape {
        }
      }
    }
  }
  attr {
    key: "use_locking"
    value {
      b: true
    }
  }
  attr {
    key: "validate_shape"
    value {
      b: true
    }
  }
}
node {
  name: "save/restore_slice_5/tensor_name"
  op: "Const"
  attr {
    key: "_output_shapes"
    value {
      list {
        shape {
        }
      }
    }
  }
  attr {
    key: "dtype"
    value {
      type: DT_STRING
    }
  }
  attr {
    key: "value"
    value {
      tensor {
        dtype: DT_STRING
        tensor_shape {
        }
        string_val: "linear/bathroom/weight"
      }
    }
  }
}
node {
  name: "save/restore_slice_5/shape_and_slice"
  op: "Const"
  attr {
    key: "_output_shapes"
    value {
      list {
        shape {
        }
      }
    }
  }
  attr {
    key: "dtype"
    value {
      type: DT_STRING
    }
  }
  attr {
    key: "value"
    value {
      tensor {
        dtype: DT_STRING
        tensor_shape {
        }
        string_val: "1 1 0,1:0,1"
      }
    }
  }
}
node {
  name: "save/restore_slice_5"
  op: "RestoreSlice"
  input: "save/Const"
  input: "save/restore_slice_5/tensor_name"
  input: "save/restore_slice_5/shape_and_slice"
  attr {
    key: "_output_shapes"
    value {
      list {
        shape {
          unknown_rank: true
        }
      }
    }
  }
  attr {
    key: "dt"
    value {
      type: DT_FLOAT
    }
  }
  attr {
    key: "preferred_shard"
    value {
      i: 0
    }
  }
}
node {
  name: "save/Assign_5"
  op: "Assign"
  input: "linear/bathroom/weight/part_0"
  input: "save/restore_slice_5"
  attr {
    key: "T"
    value {
      type: DT_FLOAT
    }
  }
  attr {
    key: "_class"
    value {
      list {
        s: "loc:@linear/bathroom/weight/part_0"
      }
    }
  }
  attr {
    key: "_output_shapes"
    value {
      list {
        shape {
          dim {
            size: 1
          }
          dim {
            size: 1
          }
        }
      }
    }
  }
  attr {
    key: "use_locking"
    value {
      b: true
    }
  }
  attr {
    key: "validate_shape"
    value {
      b: true
    }
  }
}
node {
  name: "save/restore_slice_6/tensor_name"
  op: "Const"
  attr {
    key: "_output_shapes"
    value {
      list {
        shape {
        }
      }
    }
  }
  attr {
    key: "dtype"
    value {
      type: DT_STRING
    }
  }
  attr {
    key: "value"
    value {
      tensor {
        dtype: DT_STRING
        tensor_shape {
        }
        string_val: "linear/bathroom/weight/Adam"
      }
    }
  }
}
node {
  name: "save/restore_slice_6/shape_and_slice"
  op: "Const"
  attr {
    key: "_output_shapes"
    value {
      list {
        shape {
        }
      }
    }
  }
  attr {
    key: "dtype"
    value {
      type: DT_STRING
    }
  }
  attr {
    key: "value"
    value {
      tensor {
        dtype: DT_STRING
        tensor_shape {
        }
        string_val: "1 1 0,1:0,1"
      }
    }
  }
}
node {
  name: "save/restore_slice_6"
  op: "RestoreSlice"
  input: "save/Const"
  input: "save/restore_slice_6/tensor_name"
  input: "save/restore_slice_6/shape_and_slice"
  attr {
    key: "_output_shapes"
    value {
      list {
        shape {
          unknown_rank: true
        }
      }
    }
  }
  attr {
    key: "dt"
    value {
      type: DT_FLOAT
    }
  }
  attr {
    key: "preferred_shard"
    value {
      i: 0
    }
  }
}
node {
  name: "save/Assign_6"
  op: "Assign"
  input: "linear/bathroom/weight/part_0/Adam"
  input: "save/restore_slice_6"
  attr {
    key: "T"
    value {
      type: DT_FLOAT
    }
  }
  attr {
    key: "_class"
    value {
      list {
        s: "loc:@linear/bathroom/weight/part_0"
      }
    }
  }
  attr {
    key: "_output_shapes"
    value {
      list {
        shape {
          dim {
            size: 1
          }
          dim {
            size: 1
          }
        }
      }
    }
  }
  attr {
    key: "use_locking"
    value {
      b: true
    }
  }
  attr {
    key: "validate_shape"
    value {
      b: true
    }
  }
}
node {
  name: "save/restore_slice_7/tensor_name"
  op: "Const"
  attr {
    key: "_output_shapes"
    value {
      list {
        shape {
        }
      }
    }
  }
  attr {
    key: "dtype"
    value {
      type: DT_STRING
    }
  }
  attr {
    key: "value"
    value {
      tensor {
        dtype: DT_STRING
        tensor_shape {
        }
        string_val: "linear/bathroom/weight/Adam_1"
      }
    }
  }
}
node {
  name: "save/restore_slice_7/shape_and_slice"
  op: "Const"
  attr {
    key: "_output_shapes"
    value {
      list {
        shape {
        }
      }
    }
  }
  attr {
    key: "dtype"
    value {
      type: DT_STRING
    }
  }
  attr {
    key: "value"
    value {
      tensor {
        dtype: DT_STRING
        tensor_shape {
        }
        string_val: "1 1 0,1:0,1"
      }
    }
  }
}
node {
  name: "save/restore_slice_7"
  op: "RestoreSlice"
  input: "save/Const"
  input: "save/restore_slice_7/tensor_name"
  input: "save/restore_slice_7/shape_and_slice"
  attr {
    key: "_output_shapes"
    value {
      list {
        shape {
          unknown_rank: true
        }
      }
    }
  }
  attr {
    key: "dt"
    value {
      type: DT_FLOAT
    }
  }
  attr {
    key: "preferred_shard"
    value {
      i: 0
    }
  }
}
node {
  name: "save/Assign_7"
  op: "Assign"
  input: "linear/bathroom/weight/part_0/Adam_1"
  input: "save/restore_slice_7"
  attr {
    key: "T"
    value {
      type: DT_FLOAT
    }
  }
  attr {
    key: "_class"
    value {
      list {
        s: "loc:@linear/bathroom/weight/part_0"
      }
    }
  }
  attr {
    key: "_output_shapes"
    value {
      list {
        shape {
          dim {
            size: 1
          }
          dim {
            size: 1
          }
        }
      }
    }
  }
  attr {
    key: "use_locking"
    value {
      b: true
    }
  }
  attr {
    key: "validate_shape"
    value {
      b: true
    }
  }
}
node {
  name: "save/restore_slice_8/tensor_name"
  op: "Const"
  attr {
    key: "_output_shapes"
    value {
      list {
        shape {
        }
      }
    }
  }
  attr {
    key: "dtype"
    value {
      type: DT_STRING
    }
  }
  attr {
    key: "value"
    value {
      tensor {
        dtype: DT_STRING
        tensor_shape {
        }
        string_val: "linear/bedroom/weight"
      }
    }
  }
}
node {
  name: "save/restore_slice_8/shape_and_slice"
  op: "Const"
  attr {
    key: "_output_shapes"
    value {
      list {
        shape {
        }
      }
    }
  }
  attr {
    key: "dtype"
    value {
      type: DT_STRING
    }
  }
  attr {
    key: "value"
    value {
      tensor {
        dtype: DT_STRING
        tensor_shape {
        }
        string_val: "1 1 0,1:0,1"
      }
    }
  }
}
node {
  name: "save/restore_slice_8"
  op: "RestoreSlice"
  input: "save/Const"
  input: "save/restore_slice_8/tensor_name"
  input: "save/restore_slice_8/shape_and_slice"
  attr {
    key: "_output_shapes"
    value {
      list {
        shape {
          unknown_rank: true
        }
      }
    }
  }
  attr {
    key: "dt"
    value {
      type: DT_FLOAT
    }
  }
  attr {
    key: "preferred_shard"
    value {
      i: 0
    }
  }
}
node {
  name: "save/Assign_8"
  op: "Assign"
  input: "linear/bedroom/weight/part_0"
  input: "save/restore_slice_8"
  attr {
    key: "T"
    value {
      type: DT_FLOAT
    }
  }
  attr {
    key: "_class"
    value {
      list {
        s: "loc:@linear/bedroom/weight/part_0"
      }
    }
  }
  attr {
    key: "_output_shapes"
    value {
      list {
        shape {
          dim {
            size: 1
          }
          dim {
            size: 1
          }
        }
      }
    }
  }
  attr {
    key: "use_locking"
    value {
      b: true
    }
  }
  attr {
    key: "validate_shape"
    value {
      b: true
    }
  }
}
node {
  name: "save/restore_slice_9/tensor_name"
  op: "Const"
  attr {
    key: "_output_shapes"
    value {
      list {
        shape {
        }
      }
    }
  }
  attr {
    key: "dtype"
    value {
      type: DT_STRING
    }
  }
  attr {
    key: "value"
    value {
      tensor {
        dtype: DT_STRING
        tensor_shape {
        }
        string_val: "linear/bedroom/weight/Adam"
      }
    }
  }
}
node {
  name: "save/restore_slice_9/shape_and_slice"
  op: "Const"
  attr {
    key: "_output_shapes"
    value {
      list {
        shape {
        }
      }
    }
  }
  attr {
    key: "dtype"
    value {
      type: DT_STRING
    }
  }
  attr {
    key: "value"
    value {
      tensor {
        dtype: DT_STRING
        tensor_shape {
        }
        string_val: "1 1 0,1:0,1"
      }
    }
  }
}
node {
  name: "save/restore_slice_9"
  op: "RestoreSlice"
  input: "save/Const"
  input: "save/restore_slice_9/tensor_name"
  input: "save/restore_slice_9/shape_and_slice"
  attr {
    key: "_output_shapes"
    value {
      list {
        shape {
          unknown_rank: true
        }
      }
    }
  }
  attr {
    key: "dt"
    value {
      type: DT_FLOAT
    }
  }
  attr {
    key: "preferred_shard"
    value {
      i: 0
    }
  }
}
node {
  name: "save/Assign_9"
  op: "Assign"
  input: "linear/bedroom/weight/part_0/Adam"
  input: "save/restore_slice_9"
  attr {
    key: "T"
    value {
      type: DT_FLOAT
    }
  }
  attr {
    key: "_class"
    value {
      list {
        s: "loc:@linear/bedroom/weight/part_0"
      }
    }
  }
  attr {
    key: "_output_shapes"
    value {
      list {
        shape {
          dim {
            size: 1
          }
          dim {
            size: 1
          }
        }
      }
    }
  }
  attr {
    key: "use_locking"
    value {
      b: true
    }
  }
  attr {
    key: "validate_shape"
    value {
      b: true
    }
  }
}
node {
  name: "save/restore_slice_10/tensor_name"
  op: "Const"
  attr {
    key: "_output_shapes"
    value {
      list {
        shape {
        }
      }
    }
  }
  attr {
    key: "dtype"
    value {
      type: DT_STRING
    }
  }
  attr {
    key: "value"
    value {
      tensor {
        dtype: DT_STRING
        tensor_shape {
        }
        string_val: "linear/bedroom/weight/Adam_1"
      }
    }
  }
}
node {
  name: "save/restore_slice_10/shape_and_slice"
  op: "Const"
  attr {
    key: "_output_shapes"
    value {
      list {
        shape {
        }
      }
    }
  }
  attr {
    key: "dtype"
    value {
      type: DT_STRING
    }
  }
  attr {
    key: "value"
    value {
      tensor {
        dtype: DT_STRING
        tensor_shape {
        }
        string_val: "1 1 0,1:0,1"
      }
    }
  }
}
node {
  name: "save/restore_slice_10"
  op: "RestoreSlice"
  input: "save/Const"
  input: "save/restore_slice_10/tensor_name"
  input: "save/restore_slice_10/shape_and_slice"
  attr {
    key: "_output_shapes"
    value {
      list {
        shape {
          unknown_rank: true
        }
      }
    }
  }
  attr {
    key: "dt"
    value {
      type: DT_FLOAT
    }
  }
  attr {
    key: "preferred_shard"
    value {
      i: 0
    }
  }
}
node {
  name: "save/Assign_10"
  op: "Assign"
  input: "linear/bedroom/weight/part_0/Adam_1"
  input: "save/restore_slice_10"
  attr {
    key: "T"
    value {
      type: DT_FLOAT
    }
  }
  attr {
    key: "_class"
    value {
      list {
        s: "loc:@linear/bedroom/weight/part_0"
      }
    }
  }
  attr {
    key: "_output_shapes"
    value {
      list {
        shape {
          dim {
            size: 1
          }
          dim {
            size: 1
          }
        }
      }
    }
  }
  attr {
    key: "use_locking"
    value {
      b: true
    }
  }
  attr {
    key: "validate_shape"
    value {
      b: true
    }
  }
}
node {
  name: "save/restore_slice_11/tensor_name"
  op: "Const"
  attr {
    key: "_output_shapes"
    value {
      list {
        shape {
        }
      }
    }
  }
  attr {
    key: "dtype"
    value {
      type: DT_STRING
    }
  }
  attr {
    key: "value"
    value {
      tensor {
        dtype: DT_STRING
        tensor_shape {
        }
        string_val: "linear/bias_weight"
      }
    }
  }
}
node {
  name: "save/restore_slice_11/shape_and_slice"
  op: "Const"
  attr {
    key: "_output_shapes"
    value {
      list {
        shape {
        }
      }
    }
  }
  attr {
    key: "dtype"
    value {
      type: DT_STRING
    }
  }
  attr {
    key: "value"
    value {
      tensor {
        dtype: DT_STRING
        tensor_shape {
        }
        string_val: "1 0,1"
      }
    }
  }
}
node {
  name: "save/restore_slice_11"
  op: "RestoreSlice"
  input: "save/Const"
  input: "save/restore_slice_11/tensor_name"
  input: "save/restore_slice_11/shape_and_slice"
  attr {
    key: "_output_shapes"
    value {
      list {
        shape {
          unknown_rank: true
        }
      }
    }
  }
  attr {
    key: "dt"
    value {
      type: DT_FLOAT
    }
  }
  attr {
    key: "preferred_shard"
    value {
      i: 0
    }
  }
}
node {
  name: "save/Assign_11"
  op: "Assign"
  input: "linear/bias_weight/part_0"
  input: "save/restore_slice_11"
  attr {
    key: "T"
    value {
      type: DT_FLOAT
    }
  }
  attr {
    key: "_class"
    value {
      list {
        s: "loc:@linear/bias_weight/part_0"
      }
    }
  }
  attr {
    key: "_output_shapes"
    value {
      list {
        shape {
          dim {
            size: 1
          }
        }
      }
    }
  }
  attr {
    key: "use_locking"
    value {
      b: true
    }
  }
  attr {
    key: "validate_shape"
    value {
      b: true
    }
  }
}
node {
  name: "save/restore_slice_12/tensor_name"
  op: "Const"
  attr {
    key: "_output_shapes"
    value {
      list {
        shape {
        }
      }
    }
  }
  attr {
    key: "dtype"
    value {
      type: DT_STRING
    }
  }
  attr {
    key: "value"
    value {
      tensor {
        dtype: DT_STRING
        tensor_shape {
        }
        string_val: "linear/bias_weight/Adam"
      }
    }
  }
}
node {
  name: "save/restore_slice_12/shape_and_slice"
  op: "Const"
  attr {
    key: "_output_shapes"
    value {
      list {
        shape {
        }
      }
    }
  }
  attr {
    key: "dtype"
    value {
      type: DT_STRING
    }
  }
  attr {
    key: "value"
    value {
      tensor {
        dtype: DT_STRING
        tensor_shape {
        }
        string_val: "1 0,1"
      }
    }
  }
}
node {
  name: "save/restore_slice_12"
  op: "RestoreSlice"
  input: "save/Const"
  input: "save/restore_slice_12/tensor_name"
  input: "save/restore_slice_12/shape_and_slice"
  attr {
    key: "_output_shapes"
    value {
      list {
        shape {
          unknown_rank: true
        }
      }
    }
  }
  attr {
    key: "dt"
    value {
      type: DT_FLOAT
    }
  }
  attr {
    key: "preferred_shard"
    value {
      i: 0
    }
  }
}
node {
  name: "save/Assign_12"
  op: "Assign"
  input: "linear/bias_weight/part_0/Adam"
  input: "save/restore_slice_12"
  attr {
    key: "T"
    value {
      type: DT_FLOAT
    }
  }
  attr {
    key: "_class"
    value {
      list {
        s: "loc:@linear/bias_weight/part_0"
      }
    }
  }
  attr {
    key: "_output_shapes"
    value {
      list {
        shape {
          dim {
            size: 1
          }
        }
      }
    }
  }
  attr {
    key: "use_locking"
    value {
      b: true
    }
  }
  attr {
    key: "validate_shape"
    value {
      b: true
    }
  }
}
node {
  name: "save/restore_slice_13/tensor_name"
  op: "Const"
  attr {
    key: "_output_shapes"
    value {
      list {
        shape {
        }
      }
    }
  }
  attr {
    key: "dtype"
    value {
      type: DT_STRING
    }
  }
  attr {
    key: "value"
    value {
      tensor {
        dtype: DT_STRING
        tensor_shape {
        }
        string_val: "linear/bias_weight/Adam_1"
      }
    }
  }
}
node {
  name: "save/restore_slice_13/shape_and_slice"
  op: "Const"
  attr {
    key: "_output_shapes"
    value {
      list {
        shape {
        }
      }
    }
  }
  attr {
    key: "dtype"
    value {
      type: DT_STRING
    }
  }
  attr {
    key: "value"
    value {
      tensor {
        dtype: DT_STRING
        tensor_shape {
        }
        string_val: "1 0,1"
      }
    }
  }
}
node {
  name: "save/restore_slice_13"
  op: "RestoreSlice"
  input: "save/Const"
  input: "save/restore_slice_13/tensor_name"
  input: "save/restore_slice_13/shape_and_slice"
  attr {
    key: "_output_shapes"
    value {
      list {
        shape {
          unknown_rank: true
        }
      }
    }
  }
  attr {
    key: "dt"
    value {
      type: DT_FLOAT
    }
  }
  attr {
    key: "preferred_shard"
    value {
      i: 0
    }
  }
}
node {
  name: "save/Assign_13"
  op: "Assign"
  input: "linear/bias_weight/part_0/Adam_1"
  input: "save/restore_slice_13"
  attr {
    key: "T"
    value {
      type: DT_FLOAT
    }
  }
  attr {
    key: "_class"
    value {
      list {
        s: "loc:@linear/bias_weight/part_0"
      }
    }
  }
  attr {
    key: "_output_shapes"
    value {
      list {
        shape {
          dim {
            size: 1
          }
        }
      }
    }
  }
  attr {
    key: "use_locking"
    value {
      b: true
    }
  }
  attr {
    key: "validate_shape"
    value {
      b: true
    }
  }
}
node {
  name: "save/restore_slice_14/tensor_name"
  op: "Const"
  attr {
    key: "_output_shapes"
    value {
      list {
        shape {
        }
      }
    }
  }
  attr {
    key: "dtype"
    value {
      type: DT_STRING
    }
  }
  attr {
    key: "value"
    value {
      tensor {
        dtype: DT_STRING
        tensor_shape {
        }
        string_val: "linear/property_type/weights"
      }
    }
  }
}
node {
  name: "save/restore_slice_14/shape_and_slice"
  op: "Const"
  attr {
    key: "_output_shapes"
    value {
      list {
        shape {
        }
      }
    }
  }
  attr {
    key: "dtype"
    value {
      type: DT_STRING
    }
  }
  attr {
    key: "value"
    value {
      tensor {
        dtype: DT_STRING
        tensor_shape {
        }
        string_val: "100 1 0,100:0,1"
      }
    }
  }
}
node {
  name: "save/restore_slice_14"
  op: "RestoreSlice"
  input: "save/Const"
  input: "save/restore_slice_14/tensor_name"
  input: "save/restore_slice_14/shape_and_slice"
  attr {
    key: "_output_shapes"
    value {
      list {
        shape {
          unknown_rank: true
        }
      }
    }
  }
  attr {
    key: "dt"
    value {
      type: DT_FLOAT
    }
  }
  attr {
    key: "preferred_shard"
    value {
      i: 0
    }
  }
}
node {
  name: "save/Assign_14"
  op: "Assign"
  input: "linear/property_type/weights/part_0"
  input: "save/restore_slice_14"
  attr {
    key: "T"
    value {
      type: DT_FLOAT
    }
  }
  attr {
    key: "_class"
    value {
      list {
        s: "loc:@linear/property_type/weights/part_0"
      }
    }
  }
  attr {
    key: "_output_shapes"
    value {
      list {
        shape {
          dim {
            size: 100
          }
          dim {
            size: 1
          }
        }
      }
    }
  }
  attr {
    key: "use_locking"
    value {
      b: true
    }
  }
  attr {
    key: "validate_shape"
    value {
      b: true
    }
  }
}
node {
  name: "save/restore_slice_15/tensor_name"
  op: "Const"
  attr {
    key: "_output_shapes"
    value {
      list {
        shape {
        }
      }
    }
  }
  attr {
    key: "dtype"
    value {
      type: DT_STRING
    }
  }
  attr {
    key: "value"
    value {
      tensor {
        dtype: DT_STRING
        tensor_shape {
        }
        string_val: "linear/property_type/weights/Adam"
      }
    }
  }
}
node {
  name: "save/restore_slice_15/shape_and_slice"
  op: "Const"
  attr {
    key: "_output_shapes"
    value {
      list {
        shape {
        }
      }
    }
  }
  attr {
    key: "dtype"
    value {
      type: DT_STRING
    }
  }
  attr {
    key: "value"
    value {
      tensor {
        dtype: DT_STRING
        tensor_shape {
        }
        string_val: "100 1 0,100:0,1"
      }
    }
  }
}
node {
  name: "save/restore_slice_15"
  op: "RestoreSlice"
  input: "save/Const"
  input: "save/restore_slice_15/tensor_name"
  input: "save/restore_slice_15/shape_and_slice"
  attr {
    key: "_output_shapes"
    value {
      list {
        shape {
          unknown_rank: true
        }
      }
    }
  }
  attr {
    key: "dt"
    value {
      type: DT_FLOAT
    }
  }
  attr {
    key: "preferred_shard"
    value {
      i: 0
    }
  }
}
node {
  name: "save/Assign_15"
  op: "Assign"
  input: "linear/property_type/weights/part_0/Adam"
  input: "save/restore_slice_15"
  attr {
    key: "T"
    value {
      type: DT_FLOAT
    }
  }
  attr {
    key: "_class"
    value {
      list {
        s: "loc:@linear/property_type/weights/part_0"
      }
    }
  }
  attr {
    key: "_output_shapes"
    value {
      list {
        shape {
          dim {
            size: 100
          }
          dim {
            size: 1
          }
        }
      }
    }
  }
  attr {
    key: "use_locking"
    value {
      b: true
    }
  }
  attr {
    key: "validate_shape"
    value {
      b: true
    }
  }
}
node {
  name: "save/restore_slice_16/tensor_name"
  op: "Const"
  attr {
    key: "_output_shapes"
    value {
      list {
        shape {
        }
      }
    }
  }
  attr {
    key: "dtype"
    value {
      type: DT_STRING
    }
  }
  attr {
    key: "value"
    value {
      tensor {
        dtype: DT_STRING
        tensor_shape {
        }
        string_val: "linear/property_type/weights/Adam_1"
      }
    }
  }
}
node {
  name: "save/restore_slice_16/shape_and_slice"
  op: "Const"
  attr {
    key: "_output_shapes"
    value {
      list {
        shape {
        }
      }
    }
  }
  attr {
    key: "dtype"
    value {
      type: DT_STRING
    }
  }
  attr {
    key: "value"
    value {
      tensor {
        dtype: DT_STRING
        tensor_shape {
        }
        string_val: "100 1 0,100:0,1"
      }
    }
  }
}
node {
  name: "save/restore_slice_16"
  op: "RestoreSlice"
  input: "save/Const"
  input: "save/restore_slice_16/tensor_name"
  input: "save/restore_slice_16/shape_and_slice"
  attr {
    key: "_output_shapes"
    value {
      list {
        shape {
          unknown_rank: true
        }
      }
    }
  }
  attr {
    key: "dt"
    value {
      type: DT_FLOAT
    }
  }
  attr {
    key: "preferred_shard"
    value {
      i: 0
    }
  }
}
node {
  name: "save/Assign_16"
  op: "Assign"
  input: "linear/property_type/weights/part_0/Adam_1"
  input: "save/restore_slice_16"
  attr {
    key: "T"
    value {
      type: DT_FLOAT
    }
  }
  attr {
    key: "_class"
    value {
      list {
        s: "loc:@linear/property_type/weights/part_0"
      }
    }
  }
  attr {
    key: "_output_shapes"
    value {
      list {
        shape {
          dim {
            size: 100
          }
          dim {
            size: 1
          }
        }
      }
    }
  }
  attr {
    key: "use_locking"
    value {
      b: true
    }
  }
  attr {
    key: "validate_shape"
    value {
      b: true
    }
  }
}
node {
  name: "save/restore_slice_17/tensor_name"
  op: "Const"
  attr {
    key: "_output_shapes"
    value {
      list {
        shape {
        }
      }
    }
  }
  attr {
    key: "dtype"
    value {
      type: DT_STRING
    }
  }
  attr {
    key: "value"
    value {
      tensor {
        dtype: DT_STRING
        tensor_shape {
        }
        string_val: "linear/size_bucketized/weights"
      }
    }
  }
}
node {
  name: "save/restore_slice_17/shape_and_slice"
  op: "Const"
  attr {
    key: "_output_shapes"
    value {
      list {
        shape {
        }
      }
    }
  }
  attr {
    key: "dtype"
    value {
      type: DT_STRING
    }
  }
  attr {
    key: "value"
    value {
      tensor {
        dtype: DT_STRING
        tensor_shape {
        }
        string_val: "31 1 0,31:0,1"
      }
    }
  }
}
node {
  name: "save/restore_slice_17"
  op: "RestoreSlice"
  input: "save/Const"
  input: "save/restore_slice_17/tensor_name"
  input: "save/restore_slice_17/shape_and_slice"
  attr {
    key: "_output_shapes"
    value {
      list {
        shape {
          unknown_rank: true
        }
      }
    }
  }
  attr {
    key: "dt"
    value {
      type: DT_FLOAT
    }
  }
  attr {
    key: "preferred_shard"
    value {
      i: 0
    }
  }
}
node {
  name: "save/Assign_17"
  op: "Assign"
  input: "linear/size_bucketized/weights/part_0"
  input: "save/restore_slice_17"
  attr {
    key: "T"
    value {
      type: DT_FLOAT
    }
  }
  attr {
    key: "_class"
    value {
      list {
        s: "loc:@linear/size_bucketized/weights/part_0"
      }
    }
  }
  attr {
    key: "_output_shapes"
    value {
      list {
        shape {
          dim {
            size: 31
          }
          dim {
            size: 1
          }
        }
      }
    }
  }
  attr {
    key: "use_locking"
    value {
      b: true
    }
  }
  attr {
    key: "validate_shape"
    value {
      b: true
    }
  }
}
node {
  name: "save/restore_slice_18/tensor_name"
  op: "Const"
  attr {
    key: "_output_shapes"
    value {
      list {
        shape {
        }
      }
    }
  }
  attr {
    key: "dtype"
    value {
      type: DT_STRING
    }
  }
  attr {
    key: "value"
    value {
      tensor {
        dtype: DT_STRING
        tensor_shape {
        }
        string_val: "linear/size_bucketized/weights/Adam"
      }
    }
  }
}
node {
  name: "save/restore_slice_18/shape_and_slice"
  op: "Const"
  attr {
    key: "_output_shapes"
    value {
      list {
        shape {
        }
      }
    }
  }
  attr {
    key: "dtype"
    value {
      type: DT_STRING
    }
  }
  attr {
    key: "value"
    value {
      tensor {
        dtype: DT_STRING
        tensor_shape {
        }
        string_val: "31 1 0,31:0,1"
      }
    }
  }
}
node {
  name: "save/restore_slice_18"
  op: "RestoreSlice"
  input: "save/Const"
  input: "save/restore_slice_18/tensor_name"
  input: "save/restore_slice_18/shape_and_slice"
  attr {
    key: "_output_shapes"
    value {
      list {
        shape {
          unknown_rank: true
        }
      }
    }
  }
  attr {
    key: "dt"
    value {
      type: DT_FLOAT
    }
  }
  attr {
    key: "preferred_shard"
    value {
      i: 0
    }
  }
}
node {
  name: "save/Assign_18"
  op: "Assign"
  input: "linear/size_bucketized/weights/part_0/Adam"
  input: "save/restore_slice_18"
  attr {
    key: "T"
    value {
      type: DT_FLOAT
    }
  }
  attr {
    key: "_class"
    value {
      list {
        s: "loc:@linear/size_bucketized/weights/part_0"
      }
    }
  }
  attr {
    key: "_output_shapes"
    value {
      list {
        shape {
          dim {
            size: 31
          }
          dim {
            size: 1
          }
        }
      }
    }
  }
  attr {
    key: "use_locking"
    value {
      b: true
    }
  }
  attr {
    key: "validate_shape"
    value {
      b: true
    }
  }
}
node {
  name: "save/restore_slice_19/tensor_name"
  op: "Const"
  attr {
    key: "_output_shapes"
    value {
      list {
        shape {
        }
      }
    }
  }
  attr {
    key: "dtype"
    value {
      type: DT_STRING
    }
  }
  attr {
    key: "value"
    value {
      tensor {
        dtype: DT_STRING
        tensor_shape {
        }
        string_val: "linear/size_bucketized/weights/Adam_1"
      }
    }
  }
}
node {
  name: "save/restore_slice_19/shape_and_slice"
  op: "Const"
  attr {
    key: "_output_shapes"
    value {
      list {
        shape {
        }
      }
    }
  }
  attr {
    key: "dtype"
    value {
      type: DT_STRING
    }
  }
  attr {
    key: "value"
    value {
      tensor {
        dtype: DT_STRING
        tensor_shape {
        }
        string_val: "31 1 0,31:0,1"
      }
    }
  }
}
node {
  name: "save/restore_slice_19"
  op: "RestoreSlice"
  input: "save/Const"
  input: "save/restore_slice_19/tensor_name"
  input: "save/restore_slice_19/shape_and_slice"
  attr {
    key: "_output_shapes"
    value {
      list {
        shape {
          unknown_rank: true
        }
      }
    }
  }
  attr {
    key: "dt"
    value {
      type: DT_FLOAT
    }
  }
  attr {
    key: "preferred_shard"
    value {
      i: 0
    }
  }
}
node {
  name: "save/Assign_19"
  op: "Assign"
  input: "linear/size_bucketized/weights/part_0/Adam_1"
  input: "save/restore_slice_19"
  attr {
    key: "T"
    value {
      type: DT_FLOAT
    }
  }
  attr {
    key: "_class"
    value {
      list {
        s: "loc:@linear/size_bucketized/weights/part_0"
      }
    }
  }
  attr {
    key: "_output_shapes"
    value {
      list {
        shape {
          dim {
            size: 31
          }
          dim {
            size: 1
          }
        }
      }
    }
  }
  attr {
    key: "use_locking"
    value {
      b: true
    }
  }
  attr {
    key: "validate_shape"
    value {
      b: true
    }
  }
}
node {
  name: "save/restore_slice_20/tensor_name"
  op: "Const"
  attr {
    key: "_output_shapes"
    value {
      list {
        shape {
        }
      }
    }
  }
  attr {
    key: "dtype"
    value {
      type: DT_STRING
    }
  }
  attr {
    key: "value"
    value {
      tensor {
        dtype: DT_STRING
        tensor_shape {
        }
        string_val: "linear/zipcode/weights"
      }
    }
  }
}
node {
  name: "save/restore_slice_20/shape_and_slice"
  op: "Const"
  attr {
    key: "_output_shapes"
    value {
      list {
        shape {
        }
      }
    }
  }
  attr {
    key: "dtype"
    value {
      type: DT_STRING
    }
  }
  attr {
    key: "value"
    value {
      tensor {
        dtype: DT_STRING
        tensor_shape {
        }
        string_val: "1000 1 0,1000:0,1"
      }
    }
  }
}
node {
  name: "save/restore_slice_20"
  op: "RestoreSlice"
  input: "save/Const"
  input: "save/restore_slice_20/tensor_name"
  input: "save/restore_slice_20/shape_and_slice"
  attr {
    key: "_output_shapes"
    value {
      list {
        shape {
          unknown_rank: true
        }
      }
    }
  }
  attr {
    key: "dt"
    value {
      type: DT_FLOAT
    }
  }
  attr {
    key: "preferred_shard"
    value {
      i: 0
    }
  }
}
node {
  name: "save/Assign_20"
  op: "Assign"
  input: "linear/zipcode/weights/part_0"
  input: "save/restore_slice_20"
  attr {
    key: "T"
    value {
      type: DT_FLOAT
    }
  }
  attr {
    key: "_class"
    value {
      list {
        s: "loc:@linear/zipcode/weights/part_0"
      }
    }
  }
  attr {
    key: "_output_shapes"
    value {
      list {
        shape {
          dim {
            size: 1000
          }
          dim {
            size: 1
          }
        }
      }
    }
  }
  attr {
    key: "use_locking"
    value {
      b: true
    }
  }
  attr {
    key: "validate_shape"
    value {
      b: true
    }
  }
}
node {
  name: "save/restore_slice_21/tensor_name"
  op: "Const"
  attr {
    key: "_output_shapes"
    value {
      list {
        shape {
        }
      }
    }
  }
  attr {
    key: "dtype"
    value {
      type: DT_STRING
    }
  }
  attr {
    key: "value"
    value {
      tensor {
        dtype: DT_STRING
        tensor_shape {
        }
        string_val: "linear/zipcode/weights/Adam"
      }
    }
  }
}
node {
  name: "save/restore_slice_21/shape_and_slice"
  op: "Const"
  attr {
    key: "_output_shapes"
    value {
      list {
        shape {
        }
      }
    }
  }
  attr {
    key: "dtype"
    value {
      type: DT_STRING
    }
  }
  attr {
    key: "value"
    value {
      tensor {
        dtype: DT_STRING
        tensor_shape {
        }
        string_val: "1000 1 0,1000:0,1"
      }
    }
  }
}
node {
  name: "save/restore_slice_21"
  op: "RestoreSlice"
  input: "save/Const"
  input: "save/restore_slice_21/tensor_name"
  input: "save/restore_slice_21/shape_and_slice"
  attr {
    key: "_output_shapes"
    value {
      list {
        shape {
          unknown_rank: true
        }
      }
    }
  }
  attr {
    key: "dt"
    value {
      type: DT_FLOAT
    }
  }
  attr {
    key: "preferred_shard"
    value {
      i: 0
    }
  }
}
node {
  name: "save/Assign_21"
  op: "Assign"
  input: "linear/zipcode/weights/part_0/Adam"
  input: "save/restore_slice_21"
  attr {
    key: "T"
    value {
      type: DT_FLOAT
    }
  }
  attr {
    key: "_class"
    value {
      list {
        s: "loc:@linear/zipcode/weights/part_0"
      }
    }
  }
  attr {
    key: "_output_shapes"
    value {
      list {
        shape {
          dim {
            size: 1000
          }
          dim {
            size: 1
          }
        }
      }
    }
  }
  attr {
    key: "use_locking"
    value {
      b: true
    }
  }
  attr {
    key: "validate_shape"
    value {
      b: true
    }
  }
}
node {
  name: "save/restore_slice_22/tensor_name"
  op: "Const"
  attr {
    key: "_output_shapes"
    value {
      list {
        shape {
        }
      }
    }
  }
  attr {
    key: "dtype"
    value {
      type: DT_STRING
    }
  }
  attr {
    key: "value"
    value {
      tensor {
        dtype: DT_STRING
        tensor_shape {
        }
        string_val: "linear/zipcode/weights/Adam_1"
      }
    }
  }
}
node {
  name: "save/restore_slice_22/shape_and_slice"
  op: "Const"
  attr {
    key: "_output_shapes"
    value {
      list {
        shape {
        }
      }
    }
  }
  attr {
    key: "dtype"
    value {
      type: DT_STRING
    }
  }
  attr {
    key: "value"
    value {
      tensor {
        dtype: DT_STRING
        tensor_shape {
        }
        string_val: "1000 1 0,1000:0,1"
      }
    }
  }
}
node {
  name: "save/restore_slice_22"
  op: "RestoreSlice"
  input: "save/Const"
  input: "save/restore_slice_22/tensor_name"
  input: "save/restore_slice_22/shape_and_slice"
  attr {
    key: "_output_shapes"
    value {
      list {
        shape {
          unknown_rank: true
        }
      }
    }
  }
  attr {
    key: "dt"
    value {
      type: DT_FLOAT
    }
  }
  attr {
    key: "preferred_shard"
    value {
      i: 0
    }
  }
}
node {
  name: "save/Assign_22"
  op: "Assign"
  input: "linear/zipcode/weights/part_0/Adam_1"
  input: "save/restore_slice_22"
  attr {
    key: "T"
    value {
      type: DT_FLOAT
    }
  }
  attr {
    key: "_class"
    value {
      list {
        s: "loc:@linear/zipcode/weights/part_0"
      }
    }
  }
  attr {
    key: "_output_shapes"
    value {
      list {
        shape {
          dim {
            size: 1000
          }
          dim {
            size: 1
          }
        }
      }
    }
  }
  attr {
    key: "use_locking"
    value {
      b: true
    }
  }
  attr {
    key: "validate_shape"
    value {
      b: true
    }
  }
}
node {
  name: "save/restore_shard"
  op: "NoOp"
  input: "^save/Assign"
  input: "^save/Assign_1"
  input: "^save/Assign_2"
  input: "^save/Assign_3"
  input: "^save/Assign_4"
  input: "^save/Assign_5"
  input: "^save/Assign_6"
  input: "^save/Assign_7"
  input: "^save/Assign_8"
  input: "^save/Assign_9"
  input: "^save/Assign_10"
  input: "^save/Assign_11"
  input: "^save/Assign_12"
  input: "^save/Assign_13"
  input: "^save/Assign_14"
  input: "^save/Assign_15"
  input: "^save/Assign_16"
  input: "^save/Assign_17"
  input: "^save/Assign_18"
  input: "^save/Assign_19"
  input: "^save/Assign_20"
  input: "^save/Assign_21"
  input: "^save/Assign_22"
}
node {
  name: "save/restore_all"
  op: "NoOp"
  input: "^save/restore_shard"
}
versions {
  producer: 15
}
